…
I0919 15:52:06.469799 2487759808 net.cpp:322] The NetState phase (0) differed from the phase (1) specified by a rule in layer data
I0919 15:52:06.469823 2487759808 net.cpp:322] The NetState phase (0) differed from the phase (1) specified by a rule in layer accuracy
I0919 15:52:06.469831 2487759808 net.cpp:57] Initializing net from parameters: 
name: "SpeechNetv1"
state {
  phase: TRAIN
  level: 0
  stage: ""
}
layer {
  name: "data"
  type: "Data"
  top: "data"
  top: "label"
  include {
    phase: TRAIN
  }
  transform_param {
    crop_size: 36
  }
  data_param {
    source: "../datasets/speech/EMODB/3 - LMDB/train"
    batch_size: 64
    backend: LMDB
  }
}
layer {
  name: "conv1"
  type: "Convolution"
  bottom: "data"
  top: "conv1"
  convolution_param {
    num_output: 64
    kernel_size: 3
    stride: 1
  }
}
layer {
  name: "relu1"
  type: "ReLU"
  bottom: "conv1"
  top: "relu1"
}
layer {
  name: "ip1"
  type: "InnerProduct"
  bottom: "relu1"
  top: "ip1"
  param {
    lr_mult: 1
  }
  param {
    lr_mult: 2
  }
  inner_product_param {
    num_output: 6
    weight_filler {
      type: "xavier"
    }
    bias_filler {
      type: "constant"
    }
  }
}
layer {
  name: "loss"
  type: "SoftmaxWithLoss"
  bottom: "ip1"
  bottom: "label"
  top: "loss"
}
I0919 15:52:06.470453 2487759808 layer_factory.cpp:67] Creating layer data
I0919 15:52:06.471333 2487759808 db_lmdb.cpp:40] Opened lmdb ../datasets/speech/EMODB/3 - LMDB/train
I0919 15:52:06.472941 2487759808 net.cpp:96] Creating Layer data
I0919 15:52:06.472970 2487759808 net.cpp:413] data -> data
I0919 15:52:06.473001 2487759808 net.cpp:413] data -> label
I0919 15:52:06.477933 2487759808 data_layer.cpp:46] output data size: 64,1,36,36
I0919 15:52:06.478749 2487759808 net.cpp:134] Setting up data
I0919 15:52:06.478770 2487759808 net.cpp:142] Top shape: 64 1 36 36 (82944)
I0919 15:52:06.478785 2487759808 net.cpp:142] Top shape: 64 (64)
I0919 15:52:06.478806 2487759808 layer_factory.cpp:67] Creating layer conv1
I0919 15:52:06.478822 2487759808 net.cpp:96] Creating Layer conv1
I0919 15:52:06.478829 2487759808 net.cpp:444] conv1 <- data
I0919 15:52:06.478838 2487759808 net.cpp:413] conv1 -> conv1
I0919 15:52:06.480654 2487759808 net.cpp:134] Setting up conv1
I0919 15:52:06.480669 2487759808 net.cpp:142] Top shape: 64 64 34 34 (4734976)
I0919 15:52:06.480696 2487759808 layer_factory.cpp:67] Creating layer relu1
I0919 15:52:06.480715 2487759808 net.cpp:96] Creating Layer relu1
I0919 15:52:06.480723 2487759808 net.cpp:444] relu1 <- conv1
I0919 15:52:06.480731 2487759808 net.cpp:413] relu1 -> relu1
I0919 15:52:06.480742 2487759808 net.cpp:134] Setting up relu1
I0919 15:52:06.480748 2487759808 net.cpp:142] Top shape: 64 64 34 34 (4734976)
I0919 15:52:06.480760 2487759808 layer_factory.cpp:67] Creating layer ip1
I0919 15:52:06.480792 2487759808 net.cpp:96] Creating Layer ip1
I0919 15:52:06.480800 2487759808 net.cpp:444] ip1 <- relu1
I0919 15:52:06.480809 2487759808 net.cpp:413] ip1 -> ip1
I0919 15:52:06.488513 2487759808 net.cpp:134] Setting up ip1
I0919 15:52:06.488535 2487759808 net.cpp:142] Top shape: 64 6 (384)
I0919 15:52:06.488559 2487759808 layer_factory.cpp:67] Creating layer loss
I0919 15:52:06.488571 2487759808 net.cpp:96] Creating Layer loss
I0919 15:52:06.488579 2487759808 net.cpp:444] loss <- ip1
I0919 15:52:06.488586 2487759808 net.cpp:444] loss <- label
I0919 15:52:06.488596 2487759808 net.cpp:413] loss -> loss
I0919 15:52:06.488615 2487759808 layer_factory.cpp:67] Creating layer loss
…
I0919 15:52:06.489082 2487759808 solver.cpp:194] Creating test net (#0) specified by net file: ../models/speech_net/conv1/train_test.prototxt
I0919 15:52:06.489115 2487759808 net.cpp:322] The NetState phase (1) differed from the phase (0) specified by a rule in layer data
I0919 15:52:06.489130 2487759808 net.cpp:57] Initializing net from parameters: 
name: "SpeechNetv1"
state {
  phase: TEST
}
layer {
  name: "data"
  type: "Data"
  top: "data"
  top: "label"
  include {
    phase: TEST
  }
  transform_param {
    crop_size: 36
  }
  data_param {
    source: "../datasets/speech/EMODB/3 - LMDB/test"
    batch_size: 100
    backend: LMDB
  }
}
layer {
  name: "conv1"
  type: "Convolution"
  bottom: "data"
  top: "conv1"
  convolution_param {
    num_output: 64
    kernel_size: 3
    stride: 1
  }
}
layer {
  name: "relu1"
  type: "ReLU"
  bottom: "conv1"
  top: "relu1"
}
layer {
  name: "ip1"
  type: "InnerProduct"
  bottom: "relu1"
  top: "ip1"
  param {
    lr_mult: 1
  }
  param {
    lr_mult: 2
  }
  inner_product_param {
    num_output: 6
    weight_filler {
      type: "xavier"
    }
    bias_filler {
      type: "constant"
    }
  }
}
layer {
  name: "accuracy"
  type: "Accuracy"
  bottom: "ip1"
  bottom: "label"
  top: "accuracy"
  include {
    phase: TEST
  }
}
layer {
  name: "loss"
  type: "SoftmaxWithLoss"
  bottom: "ip1"
  bottom: "label"
  top: "loss"
}
I0919 15:52:06.489258 2487759808 layer_factory.cpp:67] Creating layer data
I0919 15:52:06.490162 2487759808 db_lmdb.cpp:40] Opened lmdb ../datasets/speech/EMODB/3 - LMDB/test
I0919 15:52:06.491648 2487759808 net.cpp:96] Creating Layer data
I0919 15:52:06.491678 2487759808 net.cpp:413] data -> data
I0919 15:52:06.491696 2487759808 net.cpp:413] data -> label
I0919 15:52:06.491731 2487759808 data_layer.cpp:46] output data size: 100,1,36,36
I0919 15:52:06.493011 2487759808 net.cpp:134] Setting up data
I0919 15:52:06.493050 2487759808 net.cpp:142] Top shape: 100 1 36 36 (129600)
I0919 15:52:06.493062 2487759808 net.cpp:142] Top shape: 100 (100)
I0919 15:52:06.493082 2487759808 layer_factory.cpp:67] Creating layer label_data_1_split
I0919 15:52:06.493093 2487759808 net.cpp:96] Creating Layer label_data_1_split
I0919 15:52:06.493103 2487759808 net.cpp:444] label_data_1_split <- label
I0919 15:52:06.493113 2487759808 net.cpp:413] label_data_1_split -> label_data_1_split_0
I0919 15:52:06.493124 2487759808 net.cpp:413] label_data_1_split -> label_data_1_split_1
I0919 15:52:06.493136 2487759808 net.cpp:134] Setting up label_data_1_split
I0919 15:52:06.493144 2487759808 net.cpp:142] Top shape: 100 (100)
I0919 15:52:06.493151 2487759808 net.cpp:142] Top shape: 100 (100)
I0919 15:52:06.493162 2487759808 layer_factory.cpp:67] Creating layer conv1
I0919 15:52:06.493173 2487759808 net.cpp:96] Creating Layer conv1
I0919 15:52:06.493180 2487759808 net.cpp:444] conv1 <- data
I0919 15:52:06.493217 2487759808 net.cpp:413] conv1 -> conv1
I0919 15:52:06.493991 2487759808 net.cpp:134] Setting up conv1
I0919 15:52:06.494019 2487759808 net.cpp:142] Top shape: 100 64 34 34 (7398400)
I0919 15:52:06.494043 2487759808 layer_factory.cpp:67] Creating layer relu1
I0919 15:52:06.494057 2487759808 net.cpp:96] Creating Layer relu1
I0919 15:52:06.494065 2487759808 net.cpp:444] relu1 <- conv1
I0919 15:52:06.494151 2487759808 net.cpp:413] relu1 -> relu1
I0919 15:52:06.494185 2487759808 net.cpp:134] Setting up relu1
I0919 15:52:06.494194 2487759808 net.cpp:142] Top shape: 100 64 34 34 (7398400)
I0919 15:52:06.494207 2487759808 layer_factory.cpp:67] Creating layer ip1
I0919 15:52:06.494218 2487759808 net.cpp:96] Creating Layer ip1
I0919 15:52:06.494226 2487759808 net.cpp:444] ip1 <- relu1
I0919 15:52:06.494236 2487759808 net.cpp:413] ip1 -> ip1
I0919 15:52:06.503957 2487759808 net.cpp:134] Setting up ip1
I0919 15:52:06.503994 2487759808 net.cpp:142] Top shape: 100 6 (600)
I0919 15:52:06.504029 2487759808 layer_factory.cpp:67] Creating layer ip1_ip1_0_split
I0919 15:52:06.504043 2487759808 net.cpp:96] Creating Layer ip1_ip1_0_split
I0919 15:52:06.504052 2487759808 net.cpp:444] ip1_ip1_0_split <- ip1
I0919 15:52:06.504063 2487759808 net.cpp:413] ip1_ip1_0_split -> ip1_ip1_0_split_0
I0919 15:52:06.504076 2487759808 net.cpp:413] ip1_ip1_0_split -> ip1_ip1_0_split_1
I0919 15:52:06.504133 2487759808 net.cpp:134] Setting up ip1_ip1_0_split
I0919 15:52:06.504220 2487759808 net.cpp:142] Top shape: 100 6 (600)
I0919 15:52:06.504246 2487759808 net.cpp:142] Top shape: 100 6 (600)
I0919 15:52:06.504307 2487759808 layer_factory.cpp:67] Creating layer accuracy
I0919 15:52:06.504353 2487759808 net.cpp:96] Creating Layer accuracy
I0919 15:52:06.504389 2487759808 net.cpp:444] accuracy <- ip1_ip1_0_split_0
I0919 15:52:06.504412 2487759808 net.cpp:444] accuracy <- label_data_1_split_0
I0919 15:52:06.504461 2487759808 net.cpp:413] accuracy -> accuracy
I0919 15:52:06.504498 2487759808 net.cpp:134] Setting up accuracy
…
