…
I0919 11:15:10.540907 2487759808 net.cpp:322] The NetState phase (0) differed from the phase (1) specified by a rule in layer data
I0919 11:15:10.540980 2487759808 net.cpp:322] The NetState phase (0) differed from the phase (1) specified by a rule in layer accuracy
I0919 11:15:10.540989 2487759808 net.cpp:57] Initializing net from parameters: 
name: "SpeechNetVgg16"
state {
  phase: TRAIN
  level: 0
  stage: ""
}
layer {
  name: "data"
  type: "Data"
  top: "data"
  top: "label"
  include {
    phase: TRAIN
  }
  transform_param {
    crop_size: 36
  }
  data_param {
    source: "../datasets/speech/EMODB/3 - LMDB/train"
    batch_size: 16
    backend: LMDB
  }
}
layer {
  name: "conv1_1"
  type: "Convolution"
  bottom: "data"
  top: "conv1_1"
  convolution_param {
    num_output: 64
    pad: 1
    kernel_size: 3
  }
}
layer {
  name: "relu1_1"
  type: "ReLU"
  bottom: "conv1_1"
  top: "conv1_1"
}
layer {
  name: "conv1_2"
  type: "Convolution"
  bottom: "conv1_1"
  top: "conv1_2"
  convolution_param {
    num_output: 64
    pad: 1
    kernel_size: 3
  }
}
layer {
  name: "relu1_2"
  type: "ReLU"
  bottom: "conv1_2"
  top: "conv1_2"
}
layer {
  name: "pool1"
  type: "Pooling"
  bottom: "conv1_2"
  top: "pool1"
  pooling_param {
    pool: MAX
    kernel_size: 2
    stride: 2
  }
}
layer {
  name: "conv2_1"
  type: "Convolution"
  bottom: "pool1"
  top: "conv2_1"
  convolution_param {
    num_output: 128
    pad: 1
    kernel_size: 3
  }
}
layer {
  name: "relu2_1"
  type: "ReLU"
  bottom: "conv2_1"
  top: "conv2_1"
}
layer {
  name: "conv2_2"
  type: "Convolution"
  bottom: "conv2_1"
  top: "conv2_2"
  convolution_param {
    num_output: 128
    pad: 1
    kernel_size: 3
  }
}
layer {
  name: "relu2_2"
  type: "ReLU"
  bottom: "conv2_2"
  top: "conv2_2"
}
layer {
  name: "pool2"
  type: "Pooling"
  bottom: "conv2_2"
  top: "pool2"
  pooling_param {
    pool: MAX
    kernel_size: 2
    stride: 2
  }
}
layer {
  name: "conv3_1"
  type: "Convolution"
  bottom: "pool2"
  top: "conv3_1"
  convolution_param {
    num_output: 256
    pad: 1
    kernel_size: 3
  }
}
layer {
  name: "relu3_1"
  type: "ReLU"
  bottom: "conv3_1"
  top: "conv3_1"
}
layer {
  name: "conv3_2"
  type: "Convolution"
  bottom: "conv3_1"
  top: "conv3_2"
  convolution_param {
    num_output: 256
    pad: 1
    kernel_size: 3
  }
}
layer {
  name: "relu3_2"
  type: "ReLU"
  bottom: "conv3_2"
  top: "conv3_2"
}
layer {
  name: "conv3_3"
  type: "Convolution"
  bottom: "conv3_2"
  top: "conv3_3"
  convolution_param {
    num_output: 256
    pad: 1
    kernel_size: 3
  }
}
layer {
  name: "relu3_3"
  type: "ReLU"
  bottom: "conv3_3"
  top: "conv3_3"
}
layer {
  name: "pool3"
  type: "Pooling"
  bottom: "conv3_3"
  top: "pool3"
  pooling_param {
    pool: MAX
    kernel_size: 2
    stride: 2
  }
}
layer {
  name: "conv4_1"
  type: "Convolution"
  bottom: "pool3"
  top: "conv4_1"
  convolution_param {
    num_output: 512
    pad: 1
    kernel_size: 3
  }
}
layer {
  name: "relu4_1"
  type: "ReLU"
  bottom: "conv4_1"
  top: "conv4_1"
}
layer {
  name: "conv4_2"
  type: "Convolution"
  bottom: "conv4_1"
  top: "conv4_2"
  convolution_param {
    num_output: 512
    pad: 1
    kernel_size: 3
  }
}
layer {
  name: "relu4_2"
  type: "ReLU"
  bottom: "conv4_2"
  top: "conv4_2"
}
layer {
  name: "conv4_3"
  type: "Convolution"
  bottom: "conv4_2"
  top: "conv4_3"
  convolution_param {
    num_output: 512
    pad: 1
    kernel_size: 3
  }
}
layer {
  name: "relu4_3"
  type: "ReLU"
  bottom: "conv4_3"
  top: "conv4_3"
}
layer {
  name: "pool4"
  type: "Pooling"
  bottom: "conv4_3"
  top: "pool4"
  pooling_param {
    pool: MAX
    kernel_size: 2
    stride: 2
  }
}
layer {
  name: "conv5_1"
  type: "Convolution"
  bottom: "pool4"
  top: "conv5_1"
  convolution_param {
    num_output: 512
    pad: 1
    kernel_size: 3
  }
}
layer {
  name: "relu5_1"
  type: "ReLU"
  bottom: "conv5_1"
  top: "conv5_1"
}
layer {
  name: "conv5_2"
  type: "Convolution"
  bottom: "conv5_1"
  top: "conv5_2"
  convolution_param {
    num_output: 512
    pad: 1
    kernel_size: 3
  }
}
layer {
  name: "relu5_2"
  type: "ReLU"
  bottom: "conv5_2"
  top: "conv5_2"
}
layer {
  name: "conv5_3"
  type: "Convolution"
  bottom: "conv5_2"
  top: "conv5_3"
  convolution_param {
    num_output: 512
    pad: 1
    kernel_size: 3
  }
}
layer {
  name: "relu5_3"
  type: "ReLU"
  bottom: "conv5_3"
  top: "conv5_3"
}
layer {
  name: "pool5"
  type: "Pooling"
  bottom: "conv5_3"
  top: "pool5"
  pooling_param {
    pool: MAX
    kernel_size: 2
    stride: 2
  }
}
layer {
  name: "fc6"
  type: "InnerProduct"
  bottom: "pool5"
  top: "fc6"
  inner_product_param {
    num_output: 4096
  }
}
layer {
  name: "relu6"
  type: "ReLU"
  bottom: "fc6"
  top: "fc6"
}
layer {
  name: "drop6"
  type: "Dropout"
  bottom: "fc6"
  top: "fc6"
  dropout_param {
    dropout_ratio: 0.5
  }
}
layer {
  name: "fc7"
  type: "InnerProduct"
  bottom: "fc6"
  top: "fc7"
  inner_product_param {
    num_output: 4096
  }
}
layer {
  name: "relu7"
  type: "ReLU"
  bottom: "fc7"
  top: "fc7"
}
layer {
  name: "drop7"
  type: "Dropout"
  bottom: "fc7"
  top: "fc7"
  dropout_param {
    dropout_ratio: 0.5
  }
}
layer {
  name: "fc8_emo"
  type: "InnerProduct"
  bottom: "fc7"
  top: "fc8_emo"
  inner_product_param {
    num_output: 6
  }
}
layer {
  name: "loss"
  type: "SoftmaxWithLoss"
  bottom: "fc8_emo"
  bottom: "label"
  top: "loss"
}
I0919 11:15:10.541904 2487759808 layer_factory.cpp:67] Creating layer data
I0919 11:15:10.542754 2487759808 db_lmdb.cpp:40] Opened lmdb ../datasets/speech/EMODB/3 - LMDB/train
I0919 11:15:10.544261 2487759808 net.cpp:96] Creating Layer data
I0919 11:15:10.544296 2487759808 net.cpp:413] data -> data
I0919 11:15:10.544324 2487759808 net.cpp:413] data -> label
I0919 11:15:10.550153 2487759808 data_layer.cpp:46] output data size: 16,1,36,36
I0919 11:15:10.550493 2487759808 net.cpp:134] Setting up data
I0919 11:15:10.550513 2487759808 net.cpp:142] Top shape: 16 1 36 36 (20736)
I0919 11:15:10.550529 2487759808 net.cpp:142] Top shape: 16 (16)
I0919 11:15:10.550552 2487759808 layer_factory.cpp:67] Creating layer conv1_1
I0919 11:15:10.550570 2487759808 net.cpp:96] Creating Layer conv1_1
I0919 11:15:10.550578 2487759808 net.cpp:444] conv1_1 <- data
I0919 11:15:10.550590 2487759808 net.cpp:413] conv1_1 -> conv1_1
I0919 11:15:10.552369 2487759808 net.cpp:134] Setting up conv1_1
I0919 11:15:10.552383 2487759808 net.cpp:142] Top shape: 16 64 36 36 (1327104)
I0919 11:15:10.552400 2487759808 layer_factory.cpp:67] Creating layer relu1_1
I0919 11:15:10.552412 2487759808 net.cpp:96] Creating Layer relu1_1
I0919 11:15:10.552417 2487759808 net.cpp:444] relu1_1 <- conv1_1
I0919 11:15:10.552422 2487759808 net.cpp:400] relu1_1 -> conv1_1 (in-place)
I0919 11:15:10.552428 2487759808 net.cpp:134] Setting up relu1_1
I0919 11:15:10.552431 2487759808 net.cpp:142] Top shape: 16 64 36 36 (1327104)
I0919 11:15:10.552438 2487759808 layer_factory.cpp:67] Creating layer conv1_2
I0919 11:15:10.552444 2487759808 net.cpp:96] Creating Layer conv1_2
I0919 11:15:10.552448 2487759808 net.cpp:444] conv1_2 <- conv1_1
I0919 11:15:10.552453 2487759808 net.cpp:413] conv1_2 -> conv1_2
I0919 11:15:10.553066 2487759808 net.cpp:134] Setting up conv1_2
I0919 11:15:10.553077 2487759808 net.cpp:142] Top shape: 16 64 36 36 (1327104)
I0919 11:15:10.553089 2487759808 layer_factory.cpp:67] Creating layer relu1_2
I0919 11:15:10.553097 2487759808 net.cpp:96] Creating Layer relu1_2
I0919 11:15:10.553103 2487759808 net.cpp:444] relu1_2 <- conv1_2
I0919 11:15:10.553112 2487759808 net.cpp:400] relu1_2 -> conv1_2 (in-place)
I0919 11:15:10.553150 2487759808 net.cpp:134] Setting up relu1_2
I0919 11:15:10.553158 2487759808 net.cpp:142] Top shape: 16 64 36 36 (1327104)
I0919 11:15:10.553169 2487759808 layer_factory.cpp:67] Creating layer pool1
I0919 11:15:10.553184 2487759808 net.cpp:96] Creating Layer pool1
I0919 11:15:10.553189 2487759808 net.cpp:444] pool1 <- conv1_2
I0919 11:15:10.553197 2487759808 net.cpp:413] pool1 -> pool1
I0919 11:15:10.553658 2487759808 net.cpp:134] Setting up pool1
I0919 11:15:10.553673 2487759808 net.cpp:142] Top shape: 16 64 18 18 (331776)
I0919 11:15:10.553683 2487759808 layer_factory.cpp:67] Creating layer conv2_1
I0919 11:15:10.553689 2487759808 net.cpp:96] Creating Layer conv2_1
I0919 11:15:10.553694 2487759808 net.cpp:444] conv2_1 <- pool1
I0919 11:15:10.553709 2487759808 net.cpp:413] conv2_1 -> conv2_1
I0919 11:15:10.554424 2487759808 net.cpp:134] Setting up conv2_1
I0919 11:15:10.554436 2487759808 net.cpp:142] Top shape: 16 128 18 18 (663552)
I0919 11:15:10.554458 2487759808 layer_factory.cpp:67] Creating layer relu2_1
I0919 11:15:10.554471 2487759808 net.cpp:96] Creating Layer relu2_1
I0919 11:15:10.554479 2487759808 net.cpp:444] relu2_1 <- conv2_1
I0919 11:15:10.554522 2487759808 net.cpp:400] relu2_1 -> conv2_1 (in-place)
I0919 11:15:10.554543 2487759808 net.cpp:134] Setting up relu2_1
I0919 11:15:10.554551 2487759808 net.cpp:142] Top shape: 16 128 18 18 (663552)
I0919 11:15:10.554569 2487759808 layer_factory.cpp:67] Creating layer conv2_2
I0919 11:15:10.554584 2487759808 net.cpp:96] Creating Layer conv2_2
I0919 11:15:10.554594 2487759808 net.cpp:444] conv2_2 <- conv2_1
I0919 11:15:10.554605 2487759808 net.cpp:413] conv2_2 -> conv2_2
I0919 11:15:10.555539 2487759808 net.cpp:134] Setting up conv2_2
I0919 11:15:10.555549 2487759808 net.cpp:142] Top shape: 16 128 18 18 (663552)
I0919 11:15:10.555564 2487759808 layer_factory.cpp:67] Creating layer relu2_2
I0919 11:15:10.555572 2487759808 net.cpp:96] Creating Layer relu2_2
I0919 11:15:10.555579 2487759808 net.cpp:444] relu2_2 <- conv2_2
I0919 11:15:10.555588 2487759808 net.cpp:400] relu2_2 -> conv2_2 (in-place)
I0919 11:15:10.555598 2487759808 net.cpp:134] Setting up relu2_2
I0919 11:15:10.555604 2487759808 net.cpp:142] Top shape: 16 128 18 18 (663552)
I0919 11:15:10.555618 2487759808 layer_factory.cpp:67] Creating layer pool2
I0919 11:15:10.555627 2487759808 net.cpp:96] Creating Layer pool2
I0919 11:15:10.555635 2487759808 net.cpp:444] pool2 <- conv2_2
I0919 11:15:10.555645 2487759808 net.cpp:413] pool2 -> pool2
I0919 11:15:10.555795 2487759808 net.cpp:134] Setting up pool2
I0919 11:15:10.555805 2487759808 net.cpp:142] Top shape: 16 128 9 9 (165888)
I0919 11:15:10.555819 2487759808 layer_factory.cpp:67] Creating layer conv3_1
I0919 11:15:10.555831 2487759808 net.cpp:96] Creating Layer conv3_1
I0919 11:15:10.555838 2487759808 net.cpp:444] conv3_1 <- pool2
I0919 11:15:10.555848 2487759808 net.cpp:413] conv3_1 -> conv3_1
I0919 11:15:10.557019 2487759808 net.cpp:134] Setting up conv3_1
I0919 11:15:10.557030 2487759808 net.cpp:142] Top shape: 16 256 9 9 (331776)
I0919 11:15:10.557042 2487759808 layer_factory.cpp:67] Creating layer relu3_1
I0919 11:15:10.557049 2487759808 net.cpp:96] Creating Layer relu3_1
I0919 11:15:10.557052 2487759808 net.cpp:444] relu3_1 <- conv3_1
I0919 11:15:10.557061 2487759808 net.cpp:400] relu3_1 -> conv3_1 (in-place)
I0919 11:15:10.557083 2487759808 net.cpp:134] Setting up relu3_1
I0919 11:15:10.557096 2487759808 net.cpp:142] Top shape: 16 256 9 9 (331776)
I0919 11:15:10.557112 2487759808 layer_factory.cpp:67] Creating layer conv3_2
I0919 11:15:10.557122 2487759808 net.cpp:96] Creating Layer conv3_2
I0919 11:15:10.557129 2487759808 net.cpp:444] conv3_2 <- conv3_1
I0919 11:15:10.557139 2487759808 net.cpp:413] conv3_2 -> conv3_2
I0919 11:15:10.559134 2487759808 net.cpp:134] Setting up conv3_2
I0919 11:15:10.559149 2487759808 net.cpp:142] Top shape: 16 256 9 9 (331776)
I0919 11:15:10.559160 2487759808 layer_factory.cpp:67] Creating layer relu3_2
I0919 11:15:10.559165 2487759808 net.cpp:96] Creating Layer relu3_2
I0919 11:15:10.559170 2487759808 net.cpp:444] relu3_2 <- conv3_2
I0919 11:15:10.559211 2487759808 net.cpp:400] relu3_2 -> conv3_2 (in-place)
I0919 11:15:10.559224 2487759808 net.cpp:134] Setting up relu3_2
I0919 11:15:10.559231 2487759808 net.cpp:142] Top shape: 16 256 9 9 (331776)
I0919 11:15:10.559242 2487759808 layer_factory.cpp:67] Creating layer conv3_3
I0919 11:15:10.559252 2487759808 net.cpp:96] Creating Layer conv3_3
I0919 11:15:10.559258 2487759808 net.cpp:444] conv3_3 <- conv3_2
I0919 11:15:10.559268 2487759808 net.cpp:413] conv3_3 -> conv3_3
I0919 11:15:10.561302 2487759808 net.cpp:134] Setting up conv3_3
I0919 11:15:10.561317 2487759808 net.cpp:142] Top shape: 16 256 9 9 (331776)
I0919 11:15:10.561329 2487759808 layer_factory.cpp:67] Creating layer relu3_3
I0919 11:15:10.561352 2487759808 net.cpp:96] Creating Layer relu3_3
I0919 11:15:10.561357 2487759808 net.cpp:444] relu3_3 <- conv3_3
I0919 11:15:10.561363 2487759808 net.cpp:400] relu3_3 -> conv3_3 (in-place)
I0919 11:15:10.561374 2487759808 net.cpp:134] Setting up relu3_3
I0919 11:15:10.561380 2487759808 net.cpp:142] Top shape: 16 256 9 9 (331776)
I0919 11:15:10.561393 2487759808 layer_factory.cpp:67] Creating layer pool3
I0919 11:15:10.561404 2487759808 net.cpp:96] Creating Layer pool3
I0919 11:15:10.561413 2487759808 net.cpp:444] pool3 <- conv3_3
I0919 11:15:10.561429 2487759808 net.cpp:413] pool3 -> pool3
I0919 11:15:10.561646 2487759808 net.cpp:134] Setting up pool3
I0919 11:15:10.561656 2487759808 net.cpp:142] Top shape: 16 256 5 5 (102400)
I0919 11:15:10.561672 2487759808 layer_factory.cpp:67] Creating layer conv4_1
I0919 11:15:10.561684 2487759808 net.cpp:96] Creating Layer conv4_1
I0919 11:15:10.561693 2487759808 net.cpp:444] conv4_1 <- pool3
I0919 11:15:10.561703 2487759808 net.cpp:413] conv4_1 -> conv4_1
I0919 11:15:10.565346 2487759808 net.cpp:134] Setting up conv4_1
I0919 11:15:10.565366 2487759808 net.cpp:142] Top shape: 16 512 5 5 (204800)
I0919 11:15:10.565400 2487759808 layer_factory.cpp:67] Creating layer relu4_1
I0919 11:15:10.565424 2487759808 net.cpp:96] Creating Layer relu4_1
I0919 11:15:10.565435 2487759808 net.cpp:444] relu4_1 <- conv4_1
I0919 11:15:10.565445 2487759808 net.cpp:400] relu4_1 -> conv4_1 (in-place)
I0919 11:15:10.565457 2487759808 net.cpp:134] Setting up relu4_1
I0919 11:15:10.565466 2487759808 net.cpp:142] Top shape: 16 512 5 5 (204800)
I0919 11:15:10.565479 2487759808 layer_factory.cpp:67] Creating layer conv4_2
I0919 11:15:10.565491 2487759808 net.cpp:96] Creating Layer conv4_2
I0919 11:15:10.565500 2487759808 net.cpp:444] conv4_2 <- conv4_1
I0919 11:15:10.565510 2487759808 net.cpp:413] conv4_2 -> conv4_2
I0919 11:15:10.580698 2487759808 net.cpp:134] Setting up conv4_2
I0919 11:15:10.580724 2487759808 net.cpp:142] Top shape: 16 512 5 5 (204800)
I0919 11:15:10.580755 2487759808 layer_factory.cpp:67] Creating layer relu4_2
I0919 11:15:10.580768 2487759808 net.cpp:96] Creating Layer relu4_2
I0919 11:15:10.580777 2487759808 net.cpp:444] relu4_2 <- conv4_2
I0919 11:15:10.580787 2487759808 net.cpp:400] relu4_2 -> conv4_2 (in-place)
I0919 11:15:10.580799 2487759808 net.cpp:134] Setting up relu4_2
I0919 11:15:10.580806 2487759808 net.cpp:142] Top shape: 16 512 5 5 (204800)
I0919 11:15:10.580817 2487759808 layer_factory.cpp:67] Creating layer conv4_3
I0919 11:15:10.580827 2487759808 net.cpp:96] Creating Layer conv4_3
I0919 11:15:10.580835 2487759808 net.cpp:444] conv4_3 <- conv4_2
I0919 11:15:10.580844 2487759808 net.cpp:413] conv4_3 -> conv4_3
I0919 11:15:10.612037 2487759808 net.cpp:134] Setting up conv4_3
I0919 11:15:10.612062 2487759808 net.cpp:142] Top shape: 16 512 5 5 (204800)
I0919 11:15:10.612087 2487759808 layer_factory.cpp:67] Creating layer relu4_3
I0919 11:15:10.612118 2487759808 net.cpp:96] Creating Layer relu4_3
I0919 11:15:10.612156 2487759808 net.cpp:444] relu4_3 <- conv4_3
I0919 11:15:10.612171 2487759808 net.cpp:400] relu4_3 -> conv4_3 (in-place)
I0919 11:15:10.612185 2487759808 net.cpp:134] Setting up relu4_3
I0919 11:15:10.612190 2487759808 net.cpp:142] Top shape: 16 512 5 5 (204800)
I0919 11:15:10.612201 2487759808 layer_factory.cpp:67] Creating layer pool4
I0919 11:15:10.612277 2487759808 net.cpp:96] Creating Layer pool4
I0919 11:15:10.612290 2487759808 net.cpp:444] pool4 <- conv4_3
I0919 11:15:10.612301 2487759808 net.cpp:413] pool4 -> pool4
I0919 11:15:10.612509 2487759808 net.cpp:134] Setting up pool4
I0919 11:15:10.612520 2487759808 net.cpp:142] Top shape: 16 512 3 3 (73728)
I0919 11:15:10.612535 2487759808 layer_factory.cpp:67] Creating layer conv5_1
I0919 11:15:10.612547 2487759808 net.cpp:96] Creating Layer conv5_1
I0919 11:15:10.612556 2487759808 net.cpp:444] conv5_1 <- pool4
I0919 11:15:10.612565 2487759808 net.cpp:413] conv5_1 -> conv5_1
I0919 11:15:10.638773 2487759808 net.cpp:134] Setting up conv5_1
I0919 11:15:10.638818 2487759808 net.cpp:142] Top shape: 16 512 3 3 (73728)
I0919 11:15:10.638952 2487759808 layer_factory.cpp:67] Creating layer relu5_1
I0919 11:15:10.638986 2487759808 net.cpp:96] Creating Layer relu5_1
I0919 11:15:10.639011 2487759808 net.cpp:444] relu5_1 <- conv5_1
I0919 11:15:10.639036 2487759808 net.cpp:400] relu5_1 -> conv5_1 (in-place)
I0919 11:15:10.639065 2487759808 net.cpp:134] Setting up relu5_1
I0919 11:15:10.639086 2487759808 net.cpp:142] Top shape: 16 512 3 3 (73728)
I0919 11:15:10.639113 2487759808 layer_factory.cpp:67] Creating layer conv5_2
I0919 11:15:10.639140 2487759808 net.cpp:96] Creating Layer conv5_2
I0919 11:15:10.639161 2487759808 net.cpp:444] conv5_2 <- conv5_1
I0919 11:15:10.639187 2487759808 net.cpp:413] conv5_2 -> conv5_2
I0919 11:15:10.680867 2487759808 net.cpp:134] Setting up conv5_2
I0919 11:15:10.680891 2487759808 net.cpp:142] Top shape: 16 512 3 3 (73728)
I0919 11:15:10.680909 2487759808 layer_factory.cpp:67] Creating layer relu5_2
I0919 11:15:10.680919 2487759808 net.cpp:96] Creating Layer relu5_2
I0919 11:15:10.680927 2487759808 net.cpp:444] relu5_2 <- conv5_2
I0919 11:15:10.680933 2487759808 net.cpp:400] relu5_2 -> conv5_2 (in-place)
I0919 11:15:10.680941 2487759808 net.cpp:134] Setting up relu5_2
I0919 11:15:10.680965 2487759808 net.cpp:142] Top shape: 16 512 3 3 (73728)
I0919 11:15:10.681002 2487759808 layer_factory.cpp:67] Creating layer conv5_3
I0919 11:15:10.681035 2487759808 net.cpp:96] Creating Layer conv5_3
I0919 11:15:10.681061 2487759808 net.cpp:444] conv5_3 <- conv5_2
I0919 11:15:10.681094 2487759808 net.cpp:413] conv5_3 -> conv5_3
I0919 11:15:10.693543 2487759808 net.cpp:134] Setting up conv5_3
I0919 11:15:10.693585 2487759808 net.cpp:142] Top shape: 16 512 3 3 (73728)
I0919 11:15:10.693629 2487759808 layer_factory.cpp:67] Creating layer relu5_3
I0919 11:15:10.693653 2487759808 net.cpp:96] Creating Layer relu5_3
I0919 11:15:10.693665 2487759808 net.cpp:444] relu5_3 <- conv5_3
I0919 11:15:10.693676 2487759808 net.cpp:400] relu5_3 -> conv5_3 (in-place)
I0919 11:15:10.693689 2487759808 net.cpp:134] Setting up relu5_3
I0919 11:15:10.693696 2487759808 net.cpp:142] Top shape: 16 512 3 3 (73728)
I0919 11:15:10.693711 2487759808 layer_factory.cpp:67] Creating layer pool5
I0919 11:15:10.693720 2487759808 net.cpp:96] Creating Layer pool5
I0919 11:15:10.693728 2487759808 net.cpp:444] pool5 <- conv5_3
I0919 11:15:10.693737 2487759808 net.cpp:413] pool5 -> pool5
I0919 11:15:10.693961 2487759808 net.cpp:134] Setting up pool5
I0919 11:15:10.693975 2487759808 net.cpp:142] Top shape: 16 512 2 2 (32768)
I0919 11:15:10.693991 2487759808 layer_factory.cpp:67] Creating layer fc6
I0919 11:15:10.694022 2487759808 net.cpp:96] Creating Layer fc6
I0919 11:15:10.694033 2487759808 net.cpp:444] fc6 <- pool5
I0919 11:15:10.694043 2487759808 net.cpp:413] fc6 -> fc6
I0919 11:15:10.724800 2487759808 net.cpp:134] Setting up fc6
I0919 11:15:10.724836 2487759808 net.cpp:142] Top shape: 16 4096 (65536)
I0919 11:15:10.724854 2487759808 layer_factory.cpp:67] Creating layer relu6
I0919 11:15:10.724932 2487759808 net.cpp:96] Creating Layer relu6
I0919 11:15:10.724948 2487759808 net.cpp:444] relu6 <- fc6
I0919 11:15:10.724961 2487759808 net.cpp:400] relu6 -> fc6 (in-place)
I0919 11:15:10.724974 2487759808 net.cpp:134] Setting up relu6
I0919 11:15:10.724997 2487759808 net.cpp:142] Top shape: 16 4096 (65536)
I0919 11:15:10.725062 2487759808 layer_factory.cpp:67] Creating layer drop6
I0919 11:15:10.725092 2487759808 net.cpp:96] Creating Layer drop6
I0919 11:15:10.725100 2487759808 net.cpp:444] drop6 <- fc6
I0919 11:15:10.725112 2487759808 net.cpp:400] drop6 -> fc6 (in-place)
I0919 11:15:10.725152 2487759808 net.cpp:134] Setting up drop6
I0919 11:15:10.725183 2487759808 net.cpp:142] Top shape: 16 4096 (65536)
I0919 11:15:10.725211 2487759808 layer_factory.cpp:67] Creating layer fc7
I0919 11:15:10.725226 2487759808 net.cpp:96] Creating Layer fc7
I0919 11:15:10.725234 2487759808 net.cpp:444] fc7 <- fc6
I0919 11:15:10.725245 2487759808 net.cpp:413] fc7 -> fc7
I0919 11:15:10.792788 2487759808 net.cpp:134] Setting up fc7
I0919 11:15:10.792819 2487759808 net.cpp:142] Top shape: 16 4096 (65536)
I0919 11:15:10.792837 2487759808 layer_factory.cpp:67] Creating layer relu7
I0919 11:15:10.792939 2487759808 net.cpp:96] Creating Layer relu7
I0919 11:15:10.792958 2487759808 net.cpp:444] relu7 <- fc7
I0919 11:15:10.792982 2487759808 net.cpp:400] relu7 -> fc7 (in-place)
I0919 11:15:10.793014 2487759808 net.cpp:134] Setting up relu7
I0919 11:15:10.793023 2487759808 net.cpp:142] Top shape: 16 4096 (65536)
I0919 11:15:10.793035 2487759808 layer_factory.cpp:67] Creating layer drop7
I0919 11:15:10.793045 2487759808 net.cpp:96] Creating Layer drop7
I0919 11:15:10.793053 2487759808 net.cpp:444] drop7 <- fc7
I0919 11:15:10.793061 2487759808 net.cpp:400] drop7 -> fc7 (in-place)
I0919 11:15:10.793074 2487759808 net.cpp:134] Setting up drop7
I0919 11:15:10.793082 2487759808 net.cpp:142] Top shape: 16 4096 (65536)
I0919 11:15:10.793094 2487759808 layer_factory.cpp:67] Creating layer fc8_emo
I0919 11:15:10.793104 2487759808 net.cpp:96] Creating Layer fc8_emo
I0919 11:15:10.793112 2487759808 net.cpp:444] fc8_emo <- fc7
I0919 11:15:10.793121 2487759808 net.cpp:413] fc8_emo -> fc8_emo
I0919 11:15:10.793257 2487759808 net.cpp:134] Setting up fc8_emo
I0919 11:15:10.793272 2487759808 net.cpp:142] Top shape: 16 6 (96)
I0919 11:15:10.793305 2487759808 layer_factory.cpp:67] Creating layer loss
I0919 11:15:10.793345 2487759808 net.cpp:96] Creating Layer loss
I0919 11:15:10.793365 2487759808 net.cpp:444] loss <- fc8_emo
I0919 11:15:10.793391 2487759808 net.cpp:444] loss <- label
I0919 11:15:10.793404 2487759808 net.cpp:413] loss -> loss
I0919 11:15:10.793438 2487759808 layer_factory.cpp:67] Creating layer loss
…
I0919 11:15:10.794565 2487759808 solver.cpp:194] Creating test net (#0) specified by net file: ../models/speech_net/vgg16/train_test.prototxt
I0919 11:15:10.794654 2487759808 net.cpp:322] The NetState phase (1) differed from the phase (0) specified by a rule in layer data
I0919 11:15:10.794713 2487759808 net.cpp:57] Initializing net from parameters: 
name: "SpeechNetVgg16"
state {
  phase: TEST
}
layer {
  name: "data"
  type: "Data"
  top: "data"
  top: "label"
  include {
    phase: TEST
  }
  transform_param {
    crop_size: 36
  }
  data_param {
    source: "../datasets/speech/EMODB/3 - LMDB/test"
    batch_size: 1
    backend: LMDB
  }
}
layer {
  name: "conv1_1"
  type: "Convolution"
  bottom: "data"
  top: "conv1_1"
  convolution_param {
    num_output: 64
    pad: 1
    kernel_size: 3
  }
}
layer {
  name: "relu1_1"
  type: "ReLU"
  bottom: "conv1_1"
  top: "conv1_1"
}
layer {
  name: "conv1_2"
  type: "Convolution"
  bottom: "conv1_1"
  top: "conv1_2"
  convolution_param {
    num_output: 64
    pad: 1
    kernel_size: 3
  }
}
layer {
  name: "relu1_2"
  type: "ReLU"
  bottom: "conv1_2"
  top: "conv1_2"
}
layer {
  name: "pool1"
  type: "Pooling"
  bottom: "conv1_2"
  top: "pool1"
  pooling_param {
    pool: MAX
    kernel_size: 2
    stride: 2
  }
}
layer {
  name: "conv2_1"
  type: "Convolution"
  bottom: "pool1"
  top: "conv2_1"
  convolution_param {
    num_output: 128
    pad: 1
    kernel_size: 3
  }
}
layer {
  name: "relu2_1"
  type: "ReLU"
  bottom: "conv2_1"
  top: "conv2_1"
}
layer {
  name: "conv2_2"
  type: "Convolution"
  bottom: "conv2_1"
  top: "conv2_2"
  convolution_param {
    num_output: 128
    pad: 1
    kernel_size: 3
  }
}
layer {
  name: "relu2_2"
  type: "ReLU"
  bottom: "conv2_2"
  top: "conv2_2"
}
layer {
  name: "pool2"
  type: "Pooling"
  bottom: "conv2_2"
  top: "pool2"
  pooling_param {
    pool: MAX
    kernel_size: 2
    stride: 2
  }
}
layer {
  name: "conv3_1"
  type: "Convolution"
  bottom: "pool2"
  top: "conv3_1"
  convolution_param {
    num_output: 256
    pad: 1
    kernel_size: 3
  }
}
layer {
  name: "relu3_1"
  type: "ReLU"
  bottom: "conv3_1"
  top: "conv3_1"
}
layer {
  name: "conv3_2"
  type: "Convolution"
  bottom: "conv3_1"
  top: "conv3_2"
  convolution_param {
    num_output: 256
    pad: 1
    kernel_size: 3
  }
}
layer {
  name: "relu3_2"
  type: "ReLU"
  bottom: "conv3_2"
  top: "conv3_2"
}
layer {
  name: "conv3_3"
  type: "Convolution"
  bottom: "conv3_2"
  top: "conv3_3"
  convolution_param {
    num_output: 256
    pad: 1
    kernel_size: 3
  }
}
layer {
  name: "relu3_3"
  type: "ReLU"
  bottom: "conv3_3"
  top: "conv3_3"
}
layer {
  name: "pool3"
  type: "Pooling"
  bottom: "conv3_3"
  top: "pool3"
  pooling_param {
    pool: MAX
    kernel_size: 2
    stride: 2
  }
}
layer {
  name: "conv4_1"
  type: "Convolution"
  bottom: "pool3"
  top: "conv4_1"
  convolution_param {
    num_output: 512
    pad: 1
    kernel_size: 3
  }
}
layer {
  name: "relu4_1"
  type: "ReLU"
  bottom: "conv4_1"
  top: "conv4_1"
}
layer {
  name: "conv4_2"
  type: "Convolution"
  bottom: "conv4_1"
  top: "conv4_2"
  convolution_param {
    num_output: 512
    pad: 1
    kernel_size: 3
  }
}
layer {
  name: "relu4_2"
  type: "ReLU"
  bottom: "conv4_2"
  top: "conv4_2"
}
layer {
  name: "conv4_3"
  type: "Convolution"
  bottom: "conv4_2"
  top: "conv4_3"
  convolution_param {
    num_output: 512
    pad: 1
    kernel_size: 3
  }
}
layer {
  name: "relu4_3"
  type: "ReLU"
  bottom: "conv4_3"
  top: "conv4_3"
}
layer {
  name: "pool4"
  type: "Pooling"
  bottom: "conv4_3"
  top: "pool4"
  pooling_param {
    pool: MAX
    kernel_size: 2
    stride: 2
  }
}
layer {
  name: "conv5_1"
  type: "Convolution"
  bottom: "pool4"
  top: "conv5_1"
  convolution_param {
    num_output: 512
    pad: 1
    kernel_size: 3
  }
}
layer {
  name: "relu5_1"
  type: "ReLU"
  bottom: "conv5_1"
  top: "conv5_1"
}
layer {
  name: "conv5_2"
  type: "Convolution"
  bottom: "conv5_1"
  top: "conv5_2"
  convolution_param {
    num_output: 512
    pad: 1
    kernel_size: 3
  }
}
layer {
  name: "relu5_2"
  type: "ReLU"
  bottom: "conv5_2"
  top: "conv5_2"
}
layer {
  name: "conv5_3"
  type: "Convolution"
  bottom: "conv5_2"
  top: "conv5_3"
  convolution_param {
    num_output: 512
    pad: 1
    kernel_size: 3
  }
}
layer {
  name: "relu5_3"
  type: "ReLU"
  bottom: "conv5_3"
  top: "conv5_3"
}
layer {
  name: "pool5"
  type: "Pooling"
  bottom: "conv5_3"
  top: "pool5"
  pooling_param {
    pool: MAX
    kernel_size: 2
    stride: 2
  }
}
layer {
  name: "fc6"
  type: "InnerProduct"
  bottom: "pool5"
  top: "fc6"
  inner_product_param {
    num_output: 4096
  }
}
layer {
  name: "relu6"
  type: "ReLU"
  bottom: "fc6"
  top: "fc6"
}
layer {
  name: "drop6"
  type: "Dropout"
  bottom: "fc6"
  top: "fc6"
  dropout_param {
    dropout_ratio: 0.5
  }
}
layer {
  name: "fc7"
  type: "InnerProduct"
  bottom: "fc6"
  top: "fc7"
  inner_product_param {
    num_output: 4096
  }
}
layer {
  name: "relu7"
  type: "ReLU"
  bottom: "fc7"
  top: "fc7"
}
layer {
  name: "drop7"
  type: "Dropout"
  bottom: "fc7"
  top: "fc7"
  dropout_param {
    dropout_ratio: 0.5
  }
}
layer {
  name: "fc8_emo"
  type: "InnerProduct"
  bottom: "fc7"
  top: "fc8_emo"
  inner_product_param {
    num_output: 6
  }
}
layer {
  name: "accuracy"
  type: "Accuracy"
  bottom: "fc8_emo"
  bottom: "label"
  top: "accuracy"
  include {
    phase: TEST
  }
}
layer {
  name: "loss"
  type: "SoftmaxWithLoss"
  bottom: "fc8_emo"
  bottom: "label"
  top: "loss"
}
I0919 11:15:10.795047 2487759808 layer_factory.cpp:67] Creating layer data
I0919 11:15:10.796301 2487759808 db_lmdb.cpp:40] Opened lmdb ../datasets/speech/EMODB/3 - LMDB/test
I0919 11:15:10.797938 2487759808 net.cpp:96] Creating Layer data
I0919 11:15:10.797984 2487759808 net.cpp:413] data -> data
I0919 11:15:10.797998 2487759808 net.cpp:413] data -> label
I0919 11:15:10.798045 2487759808 data_layer.cpp:46] output data size: 1,1,36,36
I0919 11:15:10.798157 2487759808 net.cpp:134] Setting up data
I0919 11:15:10.798185 2487759808 net.cpp:142] Top shape: 1 1 36 36 (1296)
I0919 11:15:10.798216 2487759808 net.cpp:142] Top shape: 1 (1)
I0919 11:15:10.798285 2487759808 layer_factory.cpp:67] Creating layer label_data_1_split
I0919 11:15:10.798351 2487759808 net.cpp:96] Creating Layer label_data_1_split
I0919 11:15:10.798375 2487759808 net.cpp:444] label_data_1_split <- label
I0919 11:15:10.798393 2487759808 net.cpp:413] label_data_1_split -> label_data_1_split_0
I0919 11:15:10.798403 2487759808 net.cpp:413] label_data_1_split -> label_data_1_split_1
I0919 11:15:10.798413 2487759808 net.cpp:134] Setting up label_data_1_split
I0919 11:15:10.798422 2487759808 net.cpp:142] Top shape: 1 (1)
I0919 11:15:10.798434 2487759808 net.cpp:142] Top shape: 1 (1)
I0919 11:15:10.798473 2487759808 layer_factory.cpp:67] Creating layer conv1_1
I0919 11:15:10.798523 2487759808 net.cpp:96] Creating Layer conv1_1
I0919 11:15:10.798557 2487759808 net.cpp:444] conv1_1 <- data
I0919 11:15:10.798609 2487759808 net.cpp:413] conv1_1 -> conv1_1
I0919 11:15:10.799217 2487759808 net.cpp:134] Setting up conv1_1
I0919 11:15:10.799228 2487759808 net.cpp:142] Top shape: 1 64 36 36 (82944)
I0919 11:15:10.799242 2487759808 layer_factory.cpp:67] Creating layer relu1_1
I0919 11:15:10.799248 2487759808 net.cpp:96] Creating Layer relu1_1
I0919 11:15:10.799253 2487759808 net.cpp:444] relu1_1 <- conv1_1
I0919 11:15:10.799258 2487759808 net.cpp:400] relu1_1 -> conv1_1 (in-place)
I0919 11:15:10.799291 2487759808 net.cpp:134] Setting up relu1_1
I0919 11:15:10.799314 2487759808 net.cpp:142] Top shape: 1 64 36 36 (82944)
I0919 11:15:10.799335 2487759808 layer_factory.cpp:67] Creating layer conv1_2
I0919 11:15:10.799350 2487759808 net.cpp:96] Creating Layer conv1_2
I0919 11:15:10.799366 2487759808 net.cpp:444] conv1_2 <- conv1_1
I0919 11:15:10.799376 2487759808 net.cpp:413] conv1_2 -> conv1_2
I0919 11:15:10.800037 2487759808 net.cpp:134] Setting up conv1_2
I0919 11:15:10.800046 2487759808 net.cpp:142] Top shape: 1 64 36 36 (82944)
I0919 11:15:10.800058 2487759808 layer_factory.cpp:67] Creating layer relu1_2
I0919 11:15:10.800063 2487759808 net.cpp:96] Creating Layer relu1_2
I0919 11:15:10.800068 2487759808 net.cpp:444] relu1_2 <- conv1_2
I0919 11:15:10.800073 2487759808 net.cpp:400] relu1_2 -> conv1_2 (in-place)
I0919 11:15:10.800096 2487759808 net.cpp:134] Setting up relu1_2
I0919 11:15:10.800109 2487759808 net.cpp:142] Top shape: 1 64 36 36 (82944)
I0919 11:15:10.800153 2487759808 layer_factory.cpp:67] Creating layer pool1
I0919 11:15:10.800168 2487759808 net.cpp:96] Creating Layer pool1
I0919 11:15:10.800175 2487759808 net.cpp:444] pool1 <- conv1_2
I0919 11:15:10.800186 2487759808 net.cpp:413] pool1 -> pool1
I0919 11:15:10.800354 2487759808 net.cpp:134] Setting up pool1
I0919 11:15:10.800364 2487759808 net.cpp:142] Top shape: 1 64 18 18 (20736)
I0919 11:15:10.800372 2487759808 layer_factory.cpp:67] Creating layer conv2_1
I0919 11:15:10.800379 2487759808 net.cpp:96] Creating Layer conv2_1
I0919 11:15:10.800384 2487759808 net.cpp:444] conv2_1 <- pool1
I0919 11:15:10.800390 2487759808 net.cpp:413] conv2_1 -> conv2_1
I0919 11:15:10.801236 2487759808 net.cpp:134] Setting up conv2_1
I0919 11:15:10.801254 2487759808 net.cpp:142] Top shape: 1 128 18 18 (41472)
I0919 11:15:10.801275 2487759808 layer_factory.cpp:67] Creating layer relu2_1
I0919 11:15:10.801306 2487759808 net.cpp:96] Creating Layer relu2_1
I0919 11:15:10.801317 2487759808 net.cpp:444] relu2_1 <- conv2_1
I0919 11:15:10.801328 2487759808 net.cpp:400] relu2_1 -> conv2_1 (in-place)
I0919 11:15:10.801362 2487759808 net.cpp:134] Setting up relu2_1
I0919 11:15:10.801380 2487759808 net.cpp:142] Top shape: 1 128 18 18 (41472)
I0919 11:15:10.801409 2487759808 layer_factory.cpp:67] Creating layer conv2_2
I0919 11:15:10.801440 2487759808 net.cpp:96] Creating Layer conv2_2
I0919 11:15:10.801467 2487759808 net.cpp:444] conv2_2 <- conv2_1
I0919 11:15:10.801497 2487759808 net.cpp:413] conv2_2 -> conv2_2
I0919 11:15:10.802404 2487759808 net.cpp:134] Setting up conv2_2
I0919 11:15:10.802415 2487759808 net.cpp:142] Top shape: 1 128 18 18 (41472)
I0919 11:15:10.802425 2487759808 layer_factory.cpp:67] Creating layer relu2_2
I0919 11:15:10.802430 2487759808 net.cpp:96] Creating Layer relu2_2
I0919 11:15:10.802503 2487759808 net.cpp:444] relu2_2 <- conv2_2
I0919 11:15:10.802517 2487759808 net.cpp:400] relu2_2 -> conv2_2 (in-place)
I0919 11:15:10.802570 2487759808 net.cpp:134] Setting up relu2_2
I0919 11:15:10.802584 2487759808 net.cpp:142] Top shape: 1 128 18 18 (41472)
I0919 11:15:10.802594 2487759808 layer_factory.cpp:67] Creating layer pool2
I0919 11:15:10.802633 2487759808 net.cpp:96] Creating Layer pool2
I0919 11:15:10.802649 2487759808 net.cpp:444] pool2 <- conv2_2
I0919 11:15:10.802671 2487759808 net.cpp:413] pool2 -> pool2
I0919 11:15:10.802846 2487759808 net.cpp:134] Setting up pool2
I0919 11:15:10.802855 2487759808 net.cpp:142] Top shape: 1 128 9 9 (10368)
I0919 11:15:10.802868 2487759808 layer_factory.cpp:67] Creating layer conv3_1
I0919 11:15:10.802891 2487759808 net.cpp:96] Creating Layer conv3_1
I0919 11:15:10.802906 2487759808 net.cpp:444] conv3_1 <- pool2
I0919 11:15:10.802917 2487759808 net.cpp:413] conv3_1 -> conv3_1
I0919 11:15:10.804059 2487759808 net.cpp:134] Setting up conv3_1
I0919 11:15:10.804071 2487759808 net.cpp:142] Top shape: 1 256 9 9 (20736)
I0919 11:15:10.804085 2487759808 layer_factory.cpp:67] Creating layer relu3_1
I0919 11:15:10.804090 2487759808 net.cpp:96] Creating Layer relu3_1
I0919 11:15:10.804095 2487759808 net.cpp:444] relu3_1 <- conv3_1
I0919 11:15:10.804100 2487759808 net.cpp:400] relu3_1 -> conv3_1 (in-place)
I0919 11:15:10.804105 2487759808 net.cpp:134] Setting up relu3_1
I0919 11:15:10.804141 2487759808 net.cpp:142] Top shape: 1 256 9 9 (20736)
I0919 11:15:10.804188 2487759808 layer_factory.cpp:67] Creating layer conv3_2
I0919 11:15:10.804206 2487759808 net.cpp:96] Creating Layer conv3_2
I0919 11:15:10.804219 2487759808 net.cpp:444] conv3_2 <- conv3_1
I0919 11:15:10.804234 2487759808 net.cpp:413] conv3_2 -> conv3_2
I0919 11:15:10.807194 2487759808 net.cpp:134] Setting up conv3_2
I0919 11:15:10.807241 2487759808 net.cpp:142] Top shape: 1 256 9 9 (20736)
I0919 11:15:10.807293 2487759808 layer_factory.cpp:67] Creating layer relu3_2
I0919 11:15:10.807325 2487759808 net.cpp:96] Creating Layer relu3_2
I0919 11:15:10.807348 2487759808 net.cpp:444] relu3_2 <- conv3_2
I0919 11:15:10.807369 2487759808 net.cpp:400] relu3_2 -> conv3_2 (in-place)
I0919 11:15:10.807446 2487759808 net.cpp:134] Setting up relu3_2
I0919 11:15:10.807473 2487759808 net.cpp:142] Top shape: 1 256 9 9 (20736)
I0919 11:15:10.807516 2487759808 layer_factory.cpp:67] Creating layer conv3_3
I0919 11:15:10.807603 2487759808 net.cpp:96] Creating Layer conv3_3
I0919 11:15:10.807639 2487759808 net.cpp:444] conv3_3 <- conv3_2
I0919 11:15:10.808018 2487759808 net.cpp:413] conv3_3 -> conv3_3
I0919 11:15:10.810879 2487759808 net.cpp:134] Setting up conv3_3
I0919 11:15:10.811167 2487759808 net.cpp:142] Top shape: 1 256 9 9 (20736)
I0919 11:15:10.811252 2487759808 layer_factory.cpp:67] Creating layer relu3_3
I0919 11:15:10.811283 2487759808 net.cpp:96] Creating Layer relu3_3
I0919 11:15:10.811856 2487759808 net.cpp:444] relu3_3 <- conv3_3
I0919 11:15:10.812033 2487759808 net.cpp:400] relu3_3 -> conv3_3 (in-place)
I0919 11:15:10.812523 2487759808 net.cpp:134] Setting up relu3_3
I0919 11:15:10.812702 2487759808 net.cpp:142] Top shape: 1 256 9 9 (20736)
I0919 11:15:10.812863 2487759808 layer_factory.cpp:67] Creating layer pool3
I0919 11:15:10.813032 2487759808 net.cpp:96] Creating Layer pool3
I0919 11:15:10.813055 2487759808 net.cpp:444] pool3 <- conv3_3
I0919 11:15:10.813233 2487759808 net.cpp:413] pool3 -> pool3
I0919 11:15:10.813575 2487759808 net.cpp:134] Setting up pool3
I0919 11:15:10.813597 2487759808 net.cpp:142] Top shape: 1 256 5 5 (6400)
I0919 11:15:10.813638 2487759808 layer_factory.cpp:67] Creating layer conv4_1
I0919 11:15:10.813696 2487759808 net.cpp:96] Creating Layer conv4_1
I0919 11:15:10.813736 2487759808 net.cpp:444] conv4_1 <- pool3
I0919 11:15:10.813781 2487759808 net.cpp:413] conv4_1 -> conv4_1
I0919 11:15:10.819744 2487759808 net.cpp:134] Setting up conv4_1
I0919 11:15:10.819764 2487759808 net.cpp:142] Top shape: 1 512 5 5 (12800)
I0919 11:15:10.819787 2487759808 layer_factory.cpp:67] Creating layer relu4_1
I0919 11:15:10.819875 2487759808 net.cpp:96] Creating Layer relu4_1
I0919 11:15:10.819946 2487759808 net.cpp:444] relu4_1 <- conv4_1
I0919 11:15:10.819970 2487759808 net.cpp:400] relu4_1 -> conv4_1 (in-place)
I0919 11:15:10.819994 2487759808 net.cpp:134] Setting up relu4_1
I0919 11:15:10.820013 2487759808 net.cpp:142] Top shape: 1 512 5 5 (12800)
I0919 11:15:10.820111 2487759808 layer_factory.cpp:67] Creating layer conv4_2
I0919 11:15:10.820142 2487759808 net.cpp:96] Creating Layer conv4_2
I0919 11:15:10.820183 2487759808 net.cpp:444] conv4_2 <- conv4_1
I0919 11:15:10.820243 2487759808 net.cpp:413] conv4_2 -> conv4_2
I0919 11:15:10.833539 2487759808 net.cpp:134] Setting up conv4_2
I0919 11:15:10.833564 2487759808 net.cpp:142] Top shape: 1 512 5 5 (12800)
I0919 11:15:10.833590 2487759808 layer_factory.cpp:67] Creating layer relu4_2
I0919 11:15:10.833600 2487759808 net.cpp:96] Creating Layer relu4_2
I0919 11:15:10.833644 2487759808 net.cpp:444] relu4_2 <- conv4_2
I0919 11:15:10.833673 2487759808 net.cpp:400] relu4_2 -> conv4_2 (in-place)
I0919 11:15:10.833701 2487759808 net.cpp:134] Setting up relu4_2
I0919 11:15:10.833725 2487759808 net.cpp:142] Top shape: 1 512 5 5 (12800)
I0919 11:15:10.833755 2487759808 layer_factory.cpp:67] Creating layer conv4_3
I0919 11:15:10.833781 2487759808 net.cpp:96] Creating Layer conv4_3
I0919 11:15:10.833801 2487759808 net.cpp:444] conv4_3 <- conv4_2
I0919 11:15:10.833819 2487759808 net.cpp:413] conv4_3 -> conv4_3
I0919 11:15:10.850457 2487759808 net.cpp:134] Setting up conv4_3
I0919 11:15:10.850489 2487759808 net.cpp:142] Top shape: 1 512 5 5 (12800)
I0919 11:15:10.850529 2487759808 layer_factory.cpp:67] Creating layer relu4_3
I0919 11:15:10.850549 2487759808 net.cpp:96] Creating Layer relu4_3
I0919 11:15:10.850559 2487759808 net.cpp:444] relu4_3 <- conv4_3
I0919 11:15:10.850569 2487759808 net.cpp:400] relu4_3 -> conv4_3 (in-place)
I0919 11:15:10.850579 2487759808 net.cpp:134] Setting up relu4_3
I0919 11:15:10.850586 2487759808 net.cpp:142] Top shape: 1 512 5 5 (12800)
I0919 11:15:10.850615 2487759808 layer_factory.cpp:67] Creating layer pool4
I0919 11:15:10.850646 2487759808 net.cpp:96] Creating Layer pool4
I0919 11:15:10.850654 2487759808 net.cpp:444] pool4 <- conv4_3
I0919 11:15:10.850664 2487759808 net.cpp:413] pool4 -> pool4
I0919 11:15:10.850812 2487759808 net.cpp:134] Setting up pool4
I0919 11:15:10.850836 2487759808 net.cpp:142] Top shape: 1 512 3 3 (4608)
I0919 11:15:10.850860 2487759808 layer_factory.cpp:67] Creating layer conv5_1
I0919 11:15:10.850885 2487759808 net.cpp:96] Creating Layer conv5_1
I0919 11:15:10.850895 2487759808 net.cpp:444] conv5_1 <- pool4
I0919 11:15:10.850919 2487759808 net.cpp:413] conv5_1 -> conv5_1
I0919 11:15:10.866101 2487759808 net.cpp:134] Setting up conv5_1
I0919 11:15:10.866133 2487759808 net.cpp:142] Top shape: 1 512 3 3 (4608)
I0919 11:15:10.866158 2487759808 layer_factory.cpp:67] Creating layer relu5_1
I0919 11:15:10.866194 2487759808 net.cpp:96] Creating Layer relu5_1
I0919 11:15:10.866206 2487759808 net.cpp:444] relu5_1 <- conv5_1
I0919 11:15:10.866227 2487759808 net.cpp:400] relu5_1 -> conv5_1 (in-place)
I0919 11:15:10.866240 2487759808 net.cpp:134] Setting up relu5_1
I0919 11:15:10.866267 2487759808 net.cpp:142] Top shape: 1 512 3 3 (4608)
I0919 11:15:10.866292 2487759808 layer_factory.cpp:67] Creating layer conv5_2
I0919 11:15:10.866325 2487759808 net.cpp:96] Creating Layer conv5_2
I0919 11:15:10.866343 2487759808 net.cpp:444] conv5_2 <- conv5_1
I0919 11:15:10.866364 2487759808 net.cpp:413] conv5_2 -> conv5_2
I0919 11:15:10.877954 2487759808 net.cpp:134] Setting up conv5_2
I0919 11:15:10.879045 2487759808 net.cpp:142] Top shape: 1 512 3 3 (4608)
I0919 11:15:10.879134 2487759808 layer_factory.cpp:67] Creating layer relu5_2
I0919 11:15:10.879163 2487759808 net.cpp:96] Creating Layer relu5_2
I0919 11:15:10.879256 2487759808 net.cpp:444] relu5_2 <- conv5_2
I0919 11:15:10.879303 2487759808 net.cpp:400] relu5_2 -> conv5_2 (in-place)
I0919 11:15:10.879348 2487759808 net.cpp:134] Setting up relu5_2
I0919 11:15:10.879421 2487759808 net.cpp:142] Top shape: 1 512 3 3 (4608)
I0919 11:15:10.879484 2487759808 layer_factory.cpp:67] Creating layer conv5_3
I0919 11:15:10.879500 2487759808 net.cpp:96] Creating Layer conv5_3
I0919 11:15:10.879508 2487759808 net.cpp:444] conv5_3 <- conv5_2
I0919 11:15:10.879518 2487759808 net.cpp:413] conv5_3 -> conv5_3
I0919 11:15:10.895035 2487759808 net.cpp:134] Setting up conv5_3
I0919 11:15:10.895053 2487759808 net.cpp:142] Top shape: 1 512 3 3 (4608)
I0919 11:15:10.895068 2487759808 layer_factory.cpp:67] Creating layer relu5_3
I0919 11:15:10.895076 2487759808 net.cpp:96] Creating Layer relu5_3
I0919 11:15:10.895081 2487759808 net.cpp:444] relu5_3 <- conv5_3
I0919 11:15:10.895087 2487759808 net.cpp:400] relu5_3 -> conv5_3 (in-place)
I0919 11:15:10.895093 2487759808 net.cpp:134] Setting up relu5_3
I0919 11:15:10.895097 2487759808 net.cpp:142] Top shape: 1 512 3 3 (4608)
I0919 11:15:10.895104 2487759808 layer_factory.cpp:67] Creating layer pool5
I0919 11:15:10.895138 2487759808 net.cpp:96] Creating Layer pool5
I0919 11:15:10.895169 2487759808 net.cpp:444] pool5 <- conv5_3
I0919 11:15:10.895192 2487759808 net.cpp:413] pool5 -> pool5
I0919 11:15:10.895378 2487759808 net.cpp:134] Setting up pool5
I0919 11:15:10.895387 2487759808 net.cpp:142] Top shape: 1 512 2 2 (2048)
I0919 11:15:10.895401 2487759808 layer_factory.cpp:67] Creating layer fc6
I0919 11:15:10.895411 2487759808 net.cpp:96] Creating Layer fc6
I0919 11:15:10.895452 2487759808 net.cpp:444] fc6 <- pool5
I0919 11:15:10.895485 2487759808 net.cpp:413] fc6 -> fc6
I0919 11:15:10.937273 2487759808 net.cpp:134] Setting up fc6
I0919 11:15:10.937376 2487759808 net.cpp:142] Top shape: 1 4096 (4096)
I0919 11:15:10.937407 2487759808 layer_factory.cpp:67] Creating layer relu6
I0919 11:15:10.937422 2487759808 net.cpp:96] Creating Layer relu6
I0919 11:15:10.937460 2487759808 net.cpp:444] relu6 <- fc6
I0919 11:15:10.937495 2487759808 net.cpp:400] relu6 -> fc6 (in-place)
I0919 11:15:10.937510 2487759808 net.cpp:134] Setting up relu6
I0919 11:15:10.937518 2487759808 net.cpp:142] Top shape: 1 4096 (4096)
I0919 11:15:10.937531 2487759808 layer_factory.cpp:67] Creating layer drop6
I0919 11:15:10.937611 2487759808 net.cpp:96] Creating Layer drop6
I0919 11:15:10.937701 2487759808 net.cpp:444] drop6 <- fc6
I0919 11:15:10.937783 2487759808 net.cpp:400] drop6 -> fc6 (in-place)
I0919 11:15:10.937811 2487759808 net.cpp:134] Setting up drop6
I0919 11:15:10.937830 2487759808 net.cpp:142] Top shape: 1 4096 (4096)
I0919 11:15:10.937849 2487759808 layer_factory.cpp:67] Creating layer fc7
I0919 11:15:10.937860 2487759808 net.cpp:96] Creating Layer fc7
I0919 11:15:10.937868 2487759808 net.cpp:444] fc7 <- fc6
I0919 11:15:10.937880 2487759808 net.cpp:413] fc7 -> fc7
I0919 11:15:11.029779 2487759808 net.cpp:134] Setting up fc7
I0919 11:15:11.029812 2487759808 net.cpp:142] Top shape: 1 4096 (4096)
I0919 11:15:11.029831 2487759808 layer_factory.cpp:67] Creating layer relu7
I0919 11:15:11.029923 2487759808 net.cpp:96] Creating Layer relu7
I0919 11:15:11.029953 2487759808 net.cpp:444] relu7 <- fc7
I0919 11:15:11.030004 2487759808 net.cpp:400] relu7 -> fc7 (in-place)
I0919 11:15:11.030030 2487759808 net.cpp:134] Setting up relu7
I0919 11:15:11.030038 2487759808 net.cpp:142] Top shape: 1 4096 (4096)
I0919 11:15:11.030052 2487759808 layer_factory.cpp:67] Creating layer drop7
I0919 11:15:11.030064 2487759808 net.cpp:96] Creating Layer drop7
I0919 11:15:11.030073 2487759808 net.cpp:444] drop7 <- fc7
I0919 11:15:11.030086 2487759808 net.cpp:400] drop7 -> fc7 (in-place)
I0919 11:15:11.030097 2487759808 net.cpp:134] Setting up drop7
I0919 11:15:11.030103 2487759808 net.cpp:142] Top shape: 1 4096 (4096)
I0919 11:15:11.030117 2487759808 layer_factory.cpp:67] Creating layer fc8_emo
I0919 11:15:11.030127 2487759808 net.cpp:96] Creating Layer fc8_emo
I0919 11:15:11.030226 2487759808 net.cpp:444] fc8_emo <- fc7
I0919 11:15:11.030314 2487759808 net.cpp:413] fc8_emo -> fc8_emo
I0919 11:15:11.030454 2487759808 net.cpp:134] Setting up fc8_emo
I0919 11:15:11.030468 2487759808 net.cpp:142] Top shape: 1 6 (6)
I0919 11:15:11.030480 2487759808 layer_factory.cpp:67] Creating layer fc8_emo_fc8_emo_0_split
I0919 11:15:11.030572 2487759808 net.cpp:96] Creating Layer fc8_emo_fc8_emo_0_split
I0919 11:15:11.030583 2487759808 net.cpp:444] fc8_emo_fc8_emo_0_split <- fc8_emo
I0919 11:15:11.030594 2487759808 net.cpp:413] fc8_emo_fc8_emo_0_split -> fc8_emo_fc8_emo_0_split_0
I0919 11:15:11.030622 2487759808 net.cpp:413] fc8_emo_fc8_emo_0_split -> fc8_emo_fc8_emo_0_split_1
I0919 11:15:11.030639 2487759808 net.cpp:134] Setting up fc8_emo_fc8_emo_0_split
I0919 11:15:11.030647 2487759808 net.cpp:142] Top shape: 1 6 (6)
I0919 11:15:11.030675 2487759808 net.cpp:142] Top shape: 1 6 (6)
I0919 11:15:11.030699 2487759808 layer_factory.cpp:67] Creating layer accuracy
I0919 11:15:11.030720 2487759808 net.cpp:96] Creating Layer accuracy
I0919 11:15:11.030732 2487759808 net.cpp:444] accuracy <- fc8_emo_fc8_emo_0_split_0
I0919 11:15:11.030740 2487759808 net.cpp:444] accuracy <- label_data_1_split_0
I0919 11:15:11.030751 2487759808 net.cpp:413] accuracy -> accuracy
I0919 11:15:11.030789 2487759808 net.cpp:134] Setting up accuracy
…
