I0912 10:58:39.906452 3162887104 caffe.cpp:391] Use GPU with device ID 1
I0912 10:58:39.928977 3162887104 device.cpp:56] CL_DEVICE_HOST_UNIFIED_MEMORY: disabled
I0912 10:58:41.435497 3162887104 net.cpp:57] Initializing net from parameters: 
name: "VGG_FACE_16_layers"
state {
  phase: TRAIN
  level: 0
  stage: ""
}
layer {
  name: "input"
  type: "Input"
  top: "data"
  input_param {
    shape {
      dim: 1
      dim: 3
      dim: 224
      dim: 224
    }
  }
}
layer {
  name: "conv1_1"
  type: "Convolution"
  bottom: "data"
  top: "conv1_1"
  convolution_param {
    num_output: 64
    pad: 1
    kernel_size: 3
  }
}
layer {
  name: "relu1_1"
  type: "ReLU"
  bottom: "conv1_1"
  top: "conv1_1"
}
layer {
  name: "conv1_2"
  type: "Convolution"
  bottom: "conv1_1"
  top: "conv1_2"
  convolution_param {
    num_output: 64
    pad: 1
    kernel_size: 3
  }
}
layer {
  name: "relu1_2"
  type: "ReLU"
  bottom: "conv1_2"
  top: "conv1_2"
}
layer {
  name: "pool1"
  type: "Pooling"
  bottom: "conv1_2"
  top: "pool1"
  pooling_param {
    pool: MAX
    kernel_size: 2
    stride: 2
  }
}
layer {
  name: "conv2_1"
  type: "Convolution"
  bottom: "pool1"
  top: "conv2_1"
  convolution_param {
    num_output: 128
    pad: 1
    kernel_size: 3
  }
}
layer {
  name: "relu2_1"
  type: "ReLU"
  bottom: "conv2_1"
  top: "conv2_1"
}
layer {
  name: "conv2_2"
  type: "Convolution"
  bottom: "conv2_1"
  top: "conv2_2"
  convolution_param {
    num_output: 128
    pad: 1
    kernel_size: 3
  }
}
layer {
  name: "relu2_2"
  type: "ReLU"
  bottom: "conv2_2"
  top: "conv2_2"
}
layer {
  name: "pool2"
  type: "Pooling"
  bottom: "conv2_2"
  top: "pool2"
  pooling_param {
    pool: MAX
    kernel_size: 2
    stride: 2
  }
}
layer {
  name: "conv3_1"
  type: "Convolution"
  bottom: "pool2"
  top: "conv3_1"
  convolution_param {
    num_output: 256
    pad: 1
    kernel_size: 3
  }
}
layer {
  name: "relu3_1"
  type: "ReLU"
  bottom: "conv3_1"
  top: "conv3_1"
}
layer {
  name: "conv3_2"
  type: "Convolution"
  bottom: "conv3_1"
  top: "conv3_2"
  convolution_param {
    num_output: 256
    pad: 1
    kernel_size: 3
  }
}
layer {
  name: "relu3_2"
  type: "ReLU"
  bottom: "conv3_2"
  top: "conv3_2"
}
layer {
  name: "conv3_3"
  type: "Convolution"
  bottom: "conv3_2"
  top: "conv3_3"
  convolution_param {
    num_output: 256
    pad: 1
    kernel_size: 3
  }
}
layer {
  name: "relu3_3"
  type: "ReLU"
  bottom: "conv3_3"
  top: "conv3_3"
}
layer {
  name: "pool3"
  type: "Pooling"
  bottom: "conv3_3"
  top: "pool3"
  pooling_param {
    pool: MAX
    kernel_size: 2
    stride: 2
  }
}
layer {
  name: "conv4_1"
  type: "Convolution"
  bottom: "pool3"
  top: "conv4_1"
  convolution_param {
    num_output: 512
    pad: 1
    kernel_size: 3
  }
}
layer {
  name: "relu4_1"
  type: "ReLU"
  bottom: "conv4_1"
  top: "conv4_1"
}
layer {
  name: "conv4_2"
  type: "Convolution"
  bottom: "conv4_1"
  top: "conv4_2"
  convolution_param {
    num_output: 512
    pad: 1
    kernel_size: 3
  }
}
layer {
  name: "relu4_2"
  type: "ReLU"
  bottom: "conv4_2"
  top: "conv4_2"
}
layer {
  name: "conv4_3"
  type: "Convolution"
  bottom: "conv4_2"
  top: "conv4_3"
  convolution_param {
    num_output: 512
    pad: 1
    kernel_size: 3
  }
}
layer {
  name: "relu4_3"
  type: "ReLU"
  bottom: "conv4_3"
  top: "conv4_3"
}
layer {
  name: "pool4"
  type: "Pooling"
  bottom: "conv4_3"
  top: "pool4"
  pooling_param {
    pool: MAX
    kernel_size: 2
    stride: 2
  }
}
layer {
  name: "conv5_1"
  type: "Convolution"
  bottom: "pool4"
  top: "conv5_1"
  convolution_param {
    num_output: 512
    pad: 1
    kernel_size: 3
  }
}
layer {
  name: "relu5_1"
  type: "ReLU"
  bottom: "conv5_1"
  top: "conv5_1"
}
layer {
  name: "conv5_2"
  type: "Convolution"
  bottom: "conv5_1"
  top: "conv5_2"
  convolution_param {
    num_output: 512
    pad: 1
    kernel_size: 3
  }
}
layer {
  name: "relu5_2"
  type: "ReLU"
  bottom: "conv5_2"
  top: "conv5_2"
}
layer {
  name: "conv5_3"
  type: "Convolution"
  bottom: "conv5_2"
  top: "conv5_3"
  convolution_param {
    num_output: 512
    pad: 1
    kernel_size: 3
  }
}
layer {
  name: "relu5_3"
  type: "ReLU"
  bottom: "conv5_3"
  top: "conv5_3"
}
layer {
  name: "pool5"
  type: "Pooling"
  bottom: "conv5_3"
  top: "pool5"
  pooling_param {
    pool: MAX
    kernel_size: 2
    stride: 2
  }
}
layer {
  name: "fc6"
  type: "InnerProduct"
  bottom: "pool5"
  top: "fc6"
  inner_product_param {
    num_output: 4096
  }
}
layer {
  name: "relu6"
  type: "ReLU"
  bottom: "fc6"
  top: "fc6"
}
layer {
  name: "drop6"
  type: "Dropout"
  bottom: "fc6"
  top: "fc6"
  dropout_param {
    dropout_ratio: 0.5
  }
}
layer {
  name: "fc7"
  type: "InnerProduct"
  bottom: "fc6"
  top: "fc7"
  inner_product_param {
    num_output: 4096
  }
}
layer {
  name: "relu7"
  type: "ReLU"
  bottom: "fc7"
  top: "fc7"
}
layer {
  name: "drop7"
  type: "Dropout"
  bottom: "fc7"
  top: "fc7"
  dropout_param {
    dropout_ratio: 0.5
  }
}
layer {
  name: "fc8_emo"
  type: "InnerProduct"
  bottom: "fc7"
  top: "fc8_emo"
  inner_product_param {
    num_output: 6
  }
}
layer {
  name: "prob"
  type: "Softmax"
  bottom: "fc8_emo"
  top: "prob"
}
I0912 10:58:41.435838 3162887104 layer_factory.cpp:67] Creating layer input
I0912 10:58:41.435855 3162887104 net.cpp:96] Creating Layer input
I0912 10:58:41.435864 3162887104 net.cpp:413] input -> data
I0912 10:58:41.435899 3162887104 net.cpp:134] Setting up input
I0912 10:58:41.435906 3162887104 net.cpp:142] Top shape: 1 3 224 224 (150528)
I0912 10:58:41.435923 3162887104 layer_factory.cpp:67] Creating layer conv1_1
I0912 10:58:41.435933 3162887104 net.cpp:96] Creating Layer conv1_1
I0912 10:58:41.435940 3162887104 net.cpp:444] conv1_1 <- data
I0912 10:58:41.435947 3162887104 net.cpp:413] conv1_1 -> conv1_1
I0912 10:58:41.746811 3162887104 net.cpp:134] Setting up conv1_1
I0912 10:58:41.746845 3162887104 net.cpp:142] Top shape: 1 64 224 224 (3211264)
I0912 10:58:41.746870 3162887104 layer_factory.cpp:67] Creating layer relu1_1
I0912 10:58:41.746881 3162887104 net.cpp:96] Creating Layer relu1_1
I0912 10:58:41.746886 3162887104 net.cpp:444] relu1_1 <- conv1_1
I0912 10:58:41.746893 3162887104 net.cpp:400] relu1_1 -> conv1_1 (in-place)
I0912 10:58:41.746901 3162887104 net.cpp:134] Setting up relu1_1
I0912 10:58:41.746906 3162887104 net.cpp:142] Top shape: 1 64 224 224 (3211264)
I0912 10:58:41.746914 3162887104 layer_factory.cpp:67] Creating layer conv1_2
I0912 10:58:41.746922 3162887104 net.cpp:96] Creating Layer conv1_2
I0912 10:58:41.746927 3162887104 net.cpp:444] conv1_2 <- conv1_1
I0912 10:58:41.746932 3162887104 net.cpp:413] conv1_2 -> conv1_2
I0912 10:58:42.056658 3162887104 net.cpp:134] Setting up conv1_2
I0912 10:58:42.056692 3162887104 net.cpp:142] Top shape: 1 64 224 224 (3211264)
I0912 10:58:42.056713 3162887104 layer_factory.cpp:67] Creating layer relu1_2
I0912 10:58:42.056723 3162887104 net.cpp:96] Creating Layer relu1_2
I0912 10:58:42.056730 3162887104 net.cpp:444] relu1_2 <- conv1_2
I0912 10:58:42.056737 3162887104 net.cpp:400] relu1_2 -> conv1_2 (in-place)
I0912 10:58:42.056746 3162887104 net.cpp:134] Setting up relu1_2
I0912 10:58:42.056751 3162887104 net.cpp:142] Top shape: 1 64 224 224 (3211264)
I0912 10:58:42.056758 3162887104 layer_factory.cpp:67] Creating layer pool1
I0912 10:58:42.056771 3162887104 net.cpp:96] Creating Layer pool1
I0912 10:58:42.056776 3162887104 net.cpp:444] pool1 <- conv1_2
I0912 10:58:42.056782 3162887104 net.cpp:413] pool1 -> pool1
I0912 10:58:42.102758 3162887104 net.cpp:134] Setting up pool1
I0912 10:58:42.102792 3162887104 net.cpp:142] Top shape: 1 64 112 112 (802816)
I0912 10:58:42.102808 3162887104 layer_factory.cpp:67] Creating layer conv2_1
I0912 10:58:42.102818 3162887104 net.cpp:96] Creating Layer conv2_1
I0912 10:58:42.102825 3162887104 net.cpp:444] conv2_1 <- pool1
I0912 10:58:42.102833 3162887104 net.cpp:413] conv2_1 -> conv2_1
I0912 10:58:42.411717 3162887104 net.cpp:134] Setting up conv2_1
I0912 10:58:42.411749 3162887104 net.cpp:142] Top shape: 1 128 112 112 (1605632)
I0912 10:58:42.411768 3162887104 layer_factory.cpp:67] Creating layer relu2_1
I0912 10:58:42.411777 3162887104 net.cpp:96] Creating Layer relu2_1
I0912 10:58:42.411798 3162887104 net.cpp:444] relu2_1 <- conv2_1
I0912 10:58:42.411818 3162887104 net.cpp:400] relu2_1 -> conv2_1 (in-place)
I0912 10:58:42.411825 3162887104 net.cpp:134] Setting up relu2_1
I0912 10:58:42.411830 3162887104 net.cpp:142] Top shape: 1 128 112 112 (1605632)
I0912 10:58:42.411839 3162887104 layer_factory.cpp:67] Creating layer conv2_2
I0912 10:58:42.411846 3162887104 net.cpp:96] Creating Layer conv2_2
I0912 10:58:42.411850 3162887104 net.cpp:444] conv2_2 <- conv2_1
I0912 10:58:42.411856 3162887104 net.cpp:413] conv2_2 -> conv2_2
I0912 10:58:42.708787 3162887104 net.cpp:134] Setting up conv2_2
I0912 10:58:42.708822 3162887104 net.cpp:142] Top shape: 1 128 112 112 (1605632)
I0912 10:58:42.708844 3162887104 layer_factory.cpp:67] Creating layer relu2_2
I0912 10:58:42.708854 3162887104 net.cpp:96] Creating Layer relu2_2
I0912 10:58:42.708861 3162887104 net.cpp:444] relu2_2 <- conv2_2
I0912 10:58:42.708870 3162887104 net.cpp:400] relu2_2 -> conv2_2 (in-place)
I0912 10:58:42.708879 3162887104 net.cpp:134] Setting up relu2_2
I0912 10:58:42.708884 3162887104 net.cpp:142] Top shape: 1 128 112 112 (1605632)
I0912 10:58:42.708894 3162887104 layer_factory.cpp:67] Creating layer pool2
I0912 10:58:42.708901 3162887104 net.cpp:96] Creating Layer pool2
I0912 10:58:42.708907 3162887104 net.cpp:444] pool2 <- conv2_2
I0912 10:58:42.708914 3162887104 net.cpp:413] pool2 -> pool2
I0912 10:58:42.755569 3162887104 net.cpp:134] Setting up pool2
I0912 10:58:42.755602 3162887104 net.cpp:142] Top shape: 1 128 56 56 (401408)
I0912 10:58:42.755620 3162887104 layer_factory.cpp:67] Creating layer conv3_1
I0912 10:58:42.755628 3162887104 net.cpp:96] Creating Layer conv3_1
I0912 10:58:42.755635 3162887104 net.cpp:444] conv3_1 <- pool2
I0912 10:58:42.755643 3162887104 net.cpp:413] conv3_1 -> conv3_1
I0912 10:58:43.063001 3162887104 net.cpp:134] Setting up conv3_1
I0912 10:58:43.063035 3162887104 net.cpp:142] Top shape: 1 256 56 56 (802816)
I0912 10:58:43.063055 3162887104 layer_factory.cpp:67] Creating layer relu3_1
I0912 10:58:43.063064 3162887104 net.cpp:96] Creating Layer relu3_1
I0912 10:58:43.063071 3162887104 net.cpp:444] relu3_1 <- conv3_1
I0912 10:58:43.063078 3162887104 net.cpp:400] relu3_1 -> conv3_1 (in-place)
I0912 10:58:43.063086 3162887104 net.cpp:134] Setting up relu3_1
I0912 10:58:43.063091 3162887104 net.cpp:142] Top shape: 1 256 56 56 (802816)
I0912 10:58:43.063098 3162887104 layer_factory.cpp:67] Creating layer conv3_2
I0912 10:58:43.063107 3162887104 net.cpp:96] Creating Layer conv3_2
I0912 10:58:43.063112 3162887104 net.cpp:444] conv3_2 <- conv3_1
I0912 10:58:43.063117 3162887104 net.cpp:413] conv3_2 -> conv3_2
I0912 10:58:43.368506 3162887104 net.cpp:134] Setting up conv3_2
I0912 10:58:43.368535 3162887104 net.cpp:142] Top shape: 1 256 56 56 (802816)
I0912 10:58:43.368553 3162887104 layer_factory.cpp:67] Creating layer relu3_2
I0912 10:58:43.368561 3162887104 net.cpp:96] Creating Layer relu3_2
I0912 10:58:43.368568 3162887104 net.cpp:444] relu3_2 <- conv3_2
I0912 10:58:43.368574 3162887104 net.cpp:400] relu3_2 -> conv3_2 (in-place)
I0912 10:58:43.368583 3162887104 net.cpp:134] Setting up relu3_2
I0912 10:58:43.368588 3162887104 net.cpp:142] Top shape: 1 256 56 56 (802816)
I0912 10:58:43.368597 3162887104 layer_factory.cpp:67] Creating layer conv3_3
I0912 10:58:43.368603 3162887104 net.cpp:96] Creating Layer conv3_3
I0912 10:58:43.368613 3162887104 net.cpp:444] conv3_3 <- conv3_2
I0912 10:58:43.368618 3162887104 net.cpp:413] conv3_3 -> conv3_3
I0912 10:58:43.668412 3162887104 net.cpp:134] Setting up conv3_3
I0912 10:58:43.668445 3162887104 net.cpp:142] Top shape: 1 256 56 56 (802816)
I0912 10:58:43.668463 3162887104 layer_factory.cpp:67] Creating layer relu3_3
I0912 10:58:43.668473 3162887104 net.cpp:96] Creating Layer relu3_3
I0912 10:58:43.668479 3162887104 net.cpp:444] relu3_3 <- conv3_3
I0912 10:58:43.668486 3162887104 net.cpp:400] relu3_3 -> conv3_3 (in-place)
I0912 10:58:43.668495 3162887104 net.cpp:134] Setting up relu3_3
I0912 10:58:43.668500 3162887104 net.cpp:142] Top shape: 1 256 56 56 (802816)
I0912 10:58:43.668526 3162887104 layer_factory.cpp:67] Creating layer pool3
I0912 10:58:43.668547 3162887104 net.cpp:96] Creating Layer pool3
I0912 10:58:43.668553 3162887104 net.cpp:444] pool3 <- conv3_3
I0912 10:58:43.668560 3162887104 net.cpp:413] pool3 -> pool3
I0912 10:58:43.714748 3162887104 net.cpp:134] Setting up pool3
I0912 10:58:43.714783 3162887104 net.cpp:142] Top shape: 1 256 28 28 (200704)
I0912 10:58:43.714802 3162887104 layer_factory.cpp:67] Creating layer conv4_1
I0912 10:58:43.714814 3162887104 net.cpp:96] Creating Layer conv4_1
I0912 10:58:43.714821 3162887104 net.cpp:444] conv4_1 <- pool3
I0912 10:58:43.714830 3162887104 net.cpp:413] conv4_1 -> conv4_1
I0912 10:58:44.017555 3162887104 net.cpp:134] Setting up conv4_1
I0912 10:58:44.017590 3162887104 net.cpp:142] Top shape: 1 512 28 28 (401408)
I0912 10:58:44.017611 3162887104 layer_factory.cpp:67] Creating layer relu4_1
I0912 10:58:44.017621 3162887104 net.cpp:96] Creating Layer relu4_1
I0912 10:58:44.017627 3162887104 net.cpp:444] relu4_1 <- conv4_1
I0912 10:58:44.017642 3162887104 net.cpp:400] relu4_1 -> conv4_1 (in-place)
I0912 10:58:44.017652 3162887104 net.cpp:134] Setting up relu4_1
I0912 10:58:44.017657 3162887104 net.cpp:142] Top shape: 1 512 28 28 (401408)
I0912 10:58:44.017665 3162887104 layer_factory.cpp:67] Creating layer conv4_2
I0912 10:58:44.017673 3162887104 net.cpp:96] Creating Layer conv4_2
I0912 10:58:44.017679 3162887104 net.cpp:444] conv4_2 <- conv4_1
I0912 10:58:44.017685 3162887104 net.cpp:413] conv4_2 -> conv4_2
I0912 10:58:44.325407 3162887104 net.cpp:134] Setting up conv4_2
I0912 10:58:44.325449 3162887104 net.cpp:142] Top shape: 1 512 28 28 (401408)
I0912 10:58:44.325474 3162887104 layer_factory.cpp:67] Creating layer relu4_2
I0912 10:58:44.325484 3162887104 net.cpp:96] Creating Layer relu4_2
I0912 10:58:44.325492 3162887104 net.cpp:444] relu4_2 <- conv4_2
I0912 10:58:44.325500 3162887104 net.cpp:400] relu4_2 -> conv4_2 (in-place)
I0912 10:58:44.325510 3162887104 net.cpp:134] Setting up relu4_2
I0912 10:58:44.325515 3162887104 net.cpp:142] Top shape: 1 512 28 28 (401408)
I0912 10:58:44.325525 3162887104 layer_factory.cpp:67] Creating layer conv4_3
I0912 10:58:44.325533 3162887104 net.cpp:96] Creating Layer conv4_3
I0912 10:58:44.325539 3162887104 net.cpp:444] conv4_3 <- conv4_2
I0912 10:58:44.325548 3162887104 net.cpp:413] conv4_3 -> conv4_3
I0912 10:58:44.634471 3162887104 net.cpp:134] Setting up conv4_3
I0912 10:58:44.634508 3162887104 net.cpp:142] Top shape: 1 512 28 28 (401408)
I0912 10:58:44.634531 3162887104 layer_factory.cpp:67] Creating layer relu4_3
I0912 10:58:44.634541 3162887104 net.cpp:96] Creating Layer relu4_3
I0912 10:58:44.634547 3162887104 net.cpp:444] relu4_3 <- conv4_3
I0912 10:58:44.634555 3162887104 net.cpp:400] relu4_3 -> conv4_3 (in-place)
I0912 10:58:44.634564 3162887104 net.cpp:134] Setting up relu4_3
I0912 10:58:44.634570 3162887104 net.cpp:142] Top shape: 1 512 28 28 (401408)
I0912 10:58:44.634579 3162887104 layer_factory.cpp:67] Creating layer pool4
I0912 10:58:44.634588 3162887104 net.cpp:96] Creating Layer pool4
I0912 10:58:44.634593 3162887104 net.cpp:444] pool4 <- conv4_3
I0912 10:58:44.634600 3162887104 net.cpp:413] pool4 -> pool4
I0912 10:58:44.681355 3162887104 net.cpp:134] Setting up pool4
I0912 10:58:44.681388 3162887104 net.cpp:142] Top shape: 1 512 14 14 (100352)
I0912 10:58:44.681406 3162887104 layer_factory.cpp:67] Creating layer conv5_1
I0912 10:58:44.681416 3162887104 net.cpp:96] Creating Layer conv5_1
I0912 10:58:44.681421 3162887104 net.cpp:444] conv5_1 <- pool4
I0912 10:58:44.681430 3162887104 net.cpp:413] conv5_1 -> conv5_1
I0912 10:58:44.981885 3162887104 net.cpp:134] Setting up conv5_1
I0912 10:58:44.981916 3162887104 net.cpp:142] Top shape: 1 512 14 14 (100352)
I0912 10:58:44.981935 3162887104 layer_factory.cpp:67] Creating layer relu5_1
I0912 10:58:44.981942 3162887104 net.cpp:96] Creating Layer relu5_1
I0912 10:58:44.981948 3162887104 net.cpp:444] relu5_1 <- conv5_1
I0912 10:58:44.981956 3162887104 net.cpp:400] relu5_1 -> conv5_1 (in-place)
I0912 10:58:44.981963 3162887104 net.cpp:134] Setting up relu5_1
I0912 10:58:44.981986 3162887104 net.cpp:142] Top shape: 1 512 14 14 (100352)
I0912 10:58:44.982005 3162887104 layer_factory.cpp:67] Creating layer conv5_2
I0912 10:58:44.982023 3162887104 net.cpp:96] Creating Layer conv5_2
I0912 10:58:44.982028 3162887104 net.cpp:444] conv5_2 <- conv5_1
I0912 10:58:44.982043 3162887104 net.cpp:413] conv5_2 -> conv5_2
I0912 10:58:45.290648 3162887104 net.cpp:134] Setting up conv5_2
I0912 10:58:45.290684 3162887104 net.cpp:142] Top shape: 1 512 14 14 (100352)
I0912 10:58:45.290705 3162887104 layer_factory.cpp:67] Creating layer relu5_2
I0912 10:58:45.290722 3162887104 net.cpp:96] Creating Layer relu5_2
I0912 10:58:45.290730 3162887104 net.cpp:444] relu5_2 <- conv5_2
I0912 10:58:45.290738 3162887104 net.cpp:400] relu5_2 -> conv5_2 (in-place)
I0912 10:58:45.290747 3162887104 net.cpp:134] Setting up relu5_2
I0912 10:58:45.290753 3162887104 net.cpp:142] Top shape: 1 512 14 14 (100352)
I0912 10:58:45.290762 3162887104 layer_factory.cpp:67] Creating layer conv5_3
I0912 10:58:45.290771 3162887104 net.cpp:96] Creating Layer conv5_3
I0912 10:58:45.290776 3162887104 net.cpp:444] conv5_3 <- conv5_2
I0912 10:58:45.290788 3162887104 net.cpp:413] conv5_3 -> conv5_3
I0912 10:58:45.600575 3162887104 net.cpp:134] Setting up conv5_3
I0912 10:58:45.600605 3162887104 net.cpp:142] Top shape: 1 512 14 14 (100352)
I0912 10:58:45.600621 3162887104 layer_factory.cpp:67] Creating layer relu5_3
I0912 10:58:45.600630 3162887104 net.cpp:96] Creating Layer relu5_3
I0912 10:58:45.600636 3162887104 net.cpp:444] relu5_3 <- conv5_3
I0912 10:58:45.600643 3162887104 net.cpp:400] relu5_3 -> conv5_3 (in-place)
I0912 10:58:45.600651 3162887104 net.cpp:134] Setting up relu5_3
I0912 10:58:45.600656 3162887104 net.cpp:142] Top shape: 1 512 14 14 (100352)
I0912 10:58:45.600663 3162887104 layer_factory.cpp:67] Creating layer pool5
I0912 10:58:45.600672 3162887104 net.cpp:96] Creating Layer pool5
I0912 10:58:45.600675 3162887104 net.cpp:444] pool5 <- conv5_3
I0912 10:58:45.600682 3162887104 net.cpp:413] pool5 -> pool5
I0912 10:58:45.648900 3162887104 net.cpp:134] Setting up pool5
I0912 10:58:45.648932 3162887104 net.cpp:142] Top shape: 1 512 7 7 (25088)
I0912 10:58:45.648948 3162887104 layer_factory.cpp:67] Creating layer fc6
I0912 10:58:45.648959 3162887104 net.cpp:96] Creating Layer fc6
I0912 10:58:45.648965 3162887104 net.cpp:444] fc6 <- pool5
I0912 10:58:45.648973 3162887104 net.cpp:413] fc6 -> fc6
I0912 10:58:45.885047 3162887104 net.cpp:134] Setting up fc6
I0912 10:58:45.885087 3162887104 net.cpp:142] Top shape: 1 4096 (4096)
I0912 10:58:45.885104 3162887104 layer_factory.cpp:67] Creating layer relu6
I0912 10:58:45.885113 3162887104 net.cpp:96] Creating Layer relu6
I0912 10:58:45.885120 3162887104 net.cpp:444] relu6 <- fc6
I0912 10:58:45.885133 3162887104 net.cpp:400] relu6 -> fc6 (in-place)
I0912 10:58:45.885141 3162887104 net.cpp:134] Setting up relu6
I0912 10:58:45.885146 3162887104 net.cpp:142] Top shape: 1 4096 (4096)
I0912 10:58:45.885154 3162887104 layer_factory.cpp:67] Creating layer drop6
I0912 10:58:45.885161 3162887104 net.cpp:96] Creating Layer drop6
I0912 10:58:45.885166 3162887104 net.cpp:444] drop6 <- fc6
I0912 10:58:45.885172 3162887104 net.cpp:400] drop6 -> fc6 (in-place)
I0912 10:58:45.885186 3162887104 net.cpp:134] Setting up drop6
I0912 10:58:45.885191 3162887104 net.cpp:142] Top shape: 1 4096 (4096)
I0912 10:58:45.885200 3162887104 layer_factory.cpp:67] Creating layer fc7
I0912 10:58:45.885205 3162887104 net.cpp:96] Creating Layer fc7
I0912 10:58:45.885210 3162887104 net.cpp:444] fc7 <- fc6
I0912 10:58:45.885216 3162887104 net.cpp:413] fc7 -> fc7
I0912 10:58:45.923779 3162887104 net.cpp:134] Setting up fc7
I0912 10:58:45.923810 3162887104 net.cpp:142] Top shape: 1 4096 (4096)
I0912 10:58:45.923825 3162887104 layer_factory.cpp:67] Creating layer relu7
I0912 10:58:45.923835 3162887104 net.cpp:96] Creating Layer relu7
I0912 10:58:45.923840 3162887104 net.cpp:444] relu7 <- fc7
I0912 10:58:45.923847 3162887104 net.cpp:400] relu7 -> fc7 (in-place)
I0912 10:58:45.923856 3162887104 net.cpp:134] Setting up relu7
I0912 10:58:45.923879 3162887104 net.cpp:142] Top shape: 1 4096 (4096)
I0912 10:58:45.923900 3162887104 layer_factory.cpp:67] Creating layer drop7
I0912 10:58:45.923908 3162887104 net.cpp:96] Creating Layer drop7
I0912 10:58:45.923913 3162887104 net.cpp:444] drop7 <- fc7
I0912 10:58:45.923919 3162887104 net.cpp:400] drop7 -> fc7 (in-place)
I0912 10:58:45.923936 3162887104 net.cpp:134] Setting up drop7
I0912 10:58:45.923941 3162887104 net.cpp:142] Top shape: 1 4096 (4096)
I0912 10:58:45.923949 3162887104 layer_factory.cpp:67] Creating layer fc8_emo
I0912 10:58:45.923956 3162887104 net.cpp:96] Creating Layer fc8_emo
I0912 10:58:45.923961 3162887104 net.cpp:444] fc8_emo <- fc7
I0912 10:58:45.923967 3162887104 net.cpp:413] fc8_emo -> fc8_emo
I0912 10:58:45.924041 3162887104 net.cpp:134] Setting up fc8_emo
I0912 10:58:45.924046 3162887104 net.cpp:142] Top shape: 1 6 (6)
I0912 10:58:45.924055 3162887104 layer_factory.cpp:67] Creating layer prob
I0912 10:58:45.924063 3162887104 net.cpp:96] Creating Layer prob
I0912 10:58:45.924068 3162887104 net.cpp:444] prob <- fc8_emo
I0912 10:58:45.924075 3162887104 net.cpp:413] prob -> prob
I0912 10:58:45.924093 3162887104 net.cpp:134] Setting up prob
I0912 10:58:45.924098 3162887104 net.cpp:142] Top shape: 1 6 (6)
I0912 10:58:45.924105 3162887104 net.cpp:223] prob does not need backward computation.
I0912 10:58:45.924110 3162887104 net.cpp:223] fc8_emo does not need backward computation.
I0912 10:58:45.924116 3162887104 net.cpp:223] drop7 does not need backward computation.
I0912 10:58:45.924121 3162887104 net.cpp:223] relu7 does not need backward computation.
I0912 10:58:45.924126 3162887104 net.cpp:223] fc7 does not need backward computation.
…
