I0912 11:01:05.638470 3162887104 caffe.cpp:397] Use CPU.
I0912 11:01:05.641675 3162887104 net.cpp:57] Initializing net from parameters: 
name: "VGG_FACE_16_layers"
state {
  phase: TRAIN
  level: 0
  stage: ""
}
layer {
  name: "input"
  type: "Input"
  top: "data"
  input_param {
    shape {
      dim: 1
      dim: 3
      dim: 224
      dim: 224
    }
  }
}
layer {
  name: "conv1_1"
  type: "Convolution"
  bottom: "data"
  top: "conv1_1"
  convolution_param {
    num_output: 64
    pad: 1
    kernel_size: 3
  }
}
layer {
  name: "relu1_1"
  type: "ReLU"
  bottom: "conv1_1"
  top: "conv1_1"
}
layer {
  name: "conv1_2"
  type: "Convolution"
  bottom: "conv1_1"
  top: "conv1_2"
  convolution_param {
    num_output: 64
    pad: 1
    kernel_size: 3
  }
}
layer {
  name: "relu1_2"
  type: "ReLU"
  bottom: "conv1_2"
  top: "conv1_2"
}
layer {
  name: "pool1"
  type: "Pooling"
  bottom: "conv1_2"
  top: "pool1"
  pooling_param {
    pool: MAX
    kernel_size: 2
    stride: 2
  }
}
layer {
  name: "conv2_1"
  type: "Convolution"
  bottom: "pool1"
  top: "conv2_1"
  convolution_param {
    num_output: 128
    pad: 1
    kernel_size: 3
  }
}
layer {
  name: "relu2_1"
  type: "ReLU"
  bottom: "conv2_1"
  top: "conv2_1"
}
layer {
  name: "conv2_2"
  type: "Convolution"
  bottom: "conv2_1"
  top: "conv2_2"
  convolution_param {
    num_output: 128
    pad: 1
    kernel_size: 3
  }
}
layer {
  name: "relu2_2"
  type: "ReLU"
  bottom: "conv2_2"
  top: "conv2_2"
}
layer {
  name: "pool2"
  type: "Pooling"
  bottom: "conv2_2"
  top: "pool2"
  pooling_param {
    pool: MAX
    kernel_size: 2
    stride: 2
  }
}
layer {
  name: "conv3_1"
  type: "Convolution"
  bottom: "pool2"
  top: "conv3_1"
  convolution_param {
    num_output: 256
    pad: 1
    kernel_size: 3
  }
}
layer {
  name: "relu3_1"
  type: "ReLU"
  bottom: "conv3_1"
  top: "conv3_1"
}
layer {
  name: "conv3_2"
  type: "Convolution"
  bottom: "conv3_1"
  top: "conv3_2"
  convolution_param {
    num_output: 256
    pad: 1
    kernel_size: 3
  }
}
layer {
  name: "relu3_2"
  type: "ReLU"
  bottom: "conv3_2"
  top: "conv3_2"
}
layer {
  name: "conv3_3"
  type: "Convolution"
  bottom: "conv3_2"
  top: "conv3_3"
  convolution_param {
    num_output: 256
    pad: 1
    kernel_size: 3
  }
}
layer {
  name: "relu3_3"
  type: "ReLU"
  bottom: "conv3_3"
  top: "conv3_3"
}
layer {
  name: "pool3"
  type: "Pooling"
  bottom: "conv3_3"
  top: "pool3"
  pooling_param {
    pool: MAX
    kernel_size: 2
    stride: 2
  }
}
layer {
  name: "conv4_1"
  type: "Convolution"
  bottom: "pool3"
  top: "conv4_1"
  convolution_param {
    num_output: 512
    pad: 1
    kernel_size: 3
  }
}
layer {
  name: "relu4_1"
  type: "ReLU"
  bottom: "conv4_1"
  top: "conv4_1"
}
layer {
  name: "conv4_2"
  type: "Convolution"
  bottom: "conv4_1"
  top: "conv4_2"
  convolution_param {
    num_output: 512
    pad: 1
    kernel_size: 3
  }
}
layer {
  name: "relu4_2"
  type: "ReLU"
  bottom: "conv4_2"
  top: "conv4_2"
}
layer {
  name: "conv4_3"
  type: "Convolution"
  bottom: "conv4_2"
  top: "conv4_3"
  convolution_param {
    num_output: 512
    pad: 1
    kernel_size: 3
  }
}
layer {
  name: "relu4_3"
  type: "ReLU"
  bottom: "conv4_3"
  top: "conv4_3"
}
layer {
  name: "pool4"
  type: "Pooling"
  bottom: "conv4_3"
  top: "pool4"
  pooling_param {
    pool: MAX
    kernel_size: 2
    stride: 2
  }
}
layer {
  name: "conv5_1"
  type: "Convolution"
  bottom: "pool4"
  top: "conv5_1"
  convolution_param {
    num_output: 512
    pad: 1
    kernel_size: 3
  }
}
layer {
  name: "relu5_1"
  type: "ReLU"
  bottom: "conv5_1"
  top: "conv5_1"
}
layer {
  name: "conv5_2"
  type: "Convolution"
  bottom: "conv5_1"
  top: "conv5_2"
  convolution_param {
    num_output: 512
    pad: 1
    kernel_size: 3
  }
}
layer {
  name: "relu5_2"
  type: "ReLU"
  bottom: "conv5_2"
  top: "conv5_2"
}
layer {
  name: "conv5_3"
  type: "Convolution"
  bottom: "conv5_2"
  top: "conv5_3"
  convolution_param {
    num_output: 512
    pad: 1
    kernel_size: 3
  }
}
layer {
  name: "relu5_3"
  type: "ReLU"
  bottom: "conv5_3"
  top: "conv5_3"
}
layer {
  name: "pool5"
  type: "Pooling"
  bottom: "conv5_3"
  top: "pool5"
  pooling_param {
    pool: MAX
    kernel_size: 2
    stride: 2
  }
}
layer {
  name: "fc6"
  type: "InnerProduct"
  bottom: "pool5"
  top: "fc6"
  inner_product_param {
    num_output: 4096
  }
}
layer {
  name: "relu6"
  type: "ReLU"
  bottom: "fc6"
  top: "fc6"
}
layer {
  name: "drop6"
  type: "Dropout"
  bottom: "fc6"
  top: "fc6"
  dropout_param {
    dropout_ratio: 0.5
  }
}
layer {
  name: "fc7"
  type: "InnerProduct"
  bottom: "fc6"
  top: "fc7"
  inner_product_param {
    num_output: 4096
  }
}
layer {
  name: "relu7"
  type: "ReLU"
  bottom: "fc7"
  top: "fc7"
}
layer {
  name: "drop7"
  type: "Dropout"
  bottom: "fc7"
  top: "fc7"
  dropout_param {
    dropout_ratio: 0.5
  }
}
layer {
  name: "fc8_emo"
  type: "InnerProduct"
  bottom: "fc7"
  top: "fc8_emo"
  inner_product_param {
    num_output: 6
  }
}
layer {
  name: "prob"
  type: "Softmax"
  bottom: "fc8_emo"
  top: "prob"
}
I0912 11:01:05.642030 3162887104 layer_factory.cpp:67] Creating layer input
I0912 11:01:05.642045 3162887104 net.cpp:96] Creating Layer input
I0912 11:01:05.642053 3162887104 net.cpp:413] input -> data
I0912 11:01:05.642086 3162887104 net.cpp:134] Setting up input
I0912 11:01:05.642093 3162887104 net.cpp:142] Top shape: 1 3 224 224 (150528)
I0912 11:01:05.642115 3162887104 layer_factory.cpp:67] Creating layer conv1_1
I0912 11:01:05.642125 3162887104 net.cpp:96] Creating Layer conv1_1
I0912 11:01:05.642132 3162887104 net.cpp:444] conv1_1 <- data
I0912 11:01:05.642138 3162887104 net.cpp:413] conv1_1 -> conv1_1
I0912 11:01:05.642859 3162887104 net.cpp:134] Setting up conv1_1
I0912 11:01:05.642871 3162887104 net.cpp:142] Top shape: 1 64 224 224 (3211264)
I0912 11:01:05.642885 3162887104 layer_factory.cpp:67] Creating layer relu1_1
I0912 11:01:05.642894 3162887104 net.cpp:96] Creating Layer relu1_1
I0912 11:01:05.642899 3162887104 net.cpp:444] relu1_1 <- conv1_1
I0912 11:01:05.642904 3162887104 net.cpp:400] relu1_1 -> conv1_1 (in-place)
I0912 11:01:05.642911 3162887104 net.cpp:134] Setting up relu1_1
I0912 11:01:05.642915 3162887104 net.cpp:142] Top shape: 1 64 224 224 (3211264)
I0912 11:01:05.642922 3162887104 layer_factory.cpp:67] Creating layer conv1_2
I0912 11:01:05.642928 3162887104 net.cpp:96] Creating Layer conv1_2
I0912 11:01:05.642933 3162887104 net.cpp:444] conv1_2 <- conv1_1
I0912 11:01:05.642938 3162887104 net.cpp:413] conv1_2 -> conv1_2
I0912 11:01:05.643561 3162887104 net.cpp:134] Setting up conv1_2
I0912 11:01:05.643573 3162887104 net.cpp:142] Top shape: 1 64 224 224 (3211264)
I0912 11:01:05.643584 3162887104 layer_factory.cpp:67] Creating layer relu1_2
I0912 11:01:05.643590 3162887104 net.cpp:96] Creating Layer relu1_2
I0912 11:01:05.643595 3162887104 net.cpp:444] relu1_2 <- conv1_2
I0912 11:01:05.643601 3162887104 net.cpp:400] relu1_2 -> conv1_2 (in-place)
I0912 11:01:05.643607 3162887104 net.cpp:134] Setting up relu1_2
I0912 11:01:05.643611 3162887104 net.cpp:142] Top shape: 1 64 224 224 (3211264)
I0912 11:01:05.643618 3162887104 layer_factory.cpp:67] Creating layer pool1
I0912 11:01:05.643627 3162887104 net.cpp:96] Creating Layer pool1
I0912 11:01:05.643632 3162887104 net.cpp:444] pool1 <- conv1_2
I0912 11:01:05.643638 3162887104 net.cpp:413] pool1 -> pool1
I0912 11:01:05.643775 3162887104 net.cpp:134] Setting up pool1
I0912 11:01:05.643784 3162887104 net.cpp:142] Top shape: 1 64 112 112 (802816)
I0912 11:01:05.643791 3162887104 layer_factory.cpp:67] Creating layer conv2_1
I0912 11:01:05.643797 3162887104 net.cpp:96] Creating Layer conv2_1
I0912 11:01:05.643802 3162887104 net.cpp:444] conv2_1 <- pool1
I0912 11:01:05.643808 3162887104 net.cpp:413] conv2_1 -> conv2_1
I0912 11:01:05.644417 3162887104 net.cpp:134] Setting up conv2_1
I0912 11:01:05.644428 3162887104 net.cpp:142] Top shape: 1 128 112 112 (1605632)
I0912 11:01:05.644439 3162887104 layer_factory.cpp:67] Creating layer relu2_1
I0912 11:01:05.644445 3162887104 net.cpp:96] Creating Layer relu2_1
I0912 11:01:05.644450 3162887104 net.cpp:444] relu2_1 <- conv2_1
I0912 11:01:05.644456 3162887104 net.cpp:400] relu2_1 -> conv2_1 (in-place)
I0912 11:01:05.644472 3162887104 net.cpp:134] Setting up relu2_1
I0912 11:01:05.644487 3162887104 net.cpp:142] Top shape: 1 128 112 112 (1605632)
I0912 11:01:05.644495 3162887104 layer_factory.cpp:67] Creating layer conv2_2
I0912 11:01:05.644502 3162887104 net.cpp:96] Creating Layer conv2_2
I0912 11:01:05.644507 3162887104 net.cpp:444] conv2_2 <- conv2_1
I0912 11:01:05.644520 3162887104 net.cpp:413] conv2_2 -> conv2_2
I0912 11:01:05.645272 3162887104 net.cpp:134] Setting up conv2_2
I0912 11:01:05.645284 3162887104 net.cpp:142] Top shape: 1 128 112 112 (1605632)
I0912 11:01:05.645295 3162887104 layer_factory.cpp:67] Creating layer relu2_2
I0912 11:01:05.645301 3162887104 net.cpp:96] Creating Layer relu2_2
I0912 11:01:05.645306 3162887104 net.cpp:444] relu2_2 <- conv2_2
I0912 11:01:05.645311 3162887104 net.cpp:400] relu2_2 -> conv2_2 (in-place)
I0912 11:01:05.645318 3162887104 net.cpp:134] Setting up relu2_2
I0912 11:01:05.645323 3162887104 net.cpp:142] Top shape: 1 128 112 112 (1605632)
I0912 11:01:05.645329 3162887104 layer_factory.cpp:67] Creating layer pool2
I0912 11:01:05.645335 3162887104 net.cpp:96] Creating Layer pool2
I0912 11:01:05.645340 3162887104 net.cpp:444] pool2 <- conv2_2
I0912 11:01:05.645345 3162887104 net.cpp:413] pool2 -> pool2
I0912 11:01:05.645457 3162887104 net.cpp:134] Setting up pool2
I0912 11:01:05.645465 3162887104 net.cpp:142] Top shape: 1 128 56 56 (401408)
I0912 11:01:05.645473 3162887104 layer_factory.cpp:67] Creating layer conv3_1
I0912 11:01:05.645479 3162887104 net.cpp:96] Creating Layer conv3_1
I0912 11:01:05.645484 3162887104 net.cpp:444] conv3_1 <- pool2
I0912 11:01:05.645490 3162887104 net.cpp:413] conv3_1 -> conv3_1
I0912 11:01:05.646554 3162887104 net.cpp:134] Setting up conv3_1
I0912 11:01:05.646570 3162887104 net.cpp:142] Top shape: 1 256 56 56 (802816)
I0912 11:01:05.646584 3162887104 layer_factory.cpp:67] Creating layer relu3_1
I0912 11:01:05.646590 3162887104 net.cpp:96] Creating Layer relu3_1
I0912 11:01:05.646595 3162887104 net.cpp:444] relu3_1 <- conv3_1
I0912 11:01:05.646600 3162887104 net.cpp:400] relu3_1 -> conv3_1 (in-place)
I0912 11:01:05.646607 3162887104 net.cpp:134] Setting up relu3_1
I0912 11:01:05.646611 3162887104 net.cpp:142] Top shape: 1 256 56 56 (802816)
I0912 11:01:05.646618 3162887104 layer_factory.cpp:67] Creating layer conv3_2
I0912 11:01:05.646625 3162887104 net.cpp:96] Creating Layer conv3_2
I0912 11:01:05.646630 3162887104 net.cpp:444] conv3_2 <- conv3_1
I0912 11:01:05.646636 3162887104 net.cpp:413] conv3_2 -> conv3_2
I0912 11:01:05.648321 3162887104 net.cpp:134] Setting up conv3_2
I0912 11:01:05.648346 3162887104 net.cpp:142] Top shape: 1 256 56 56 (802816)
I0912 11:01:05.648360 3162887104 layer_factory.cpp:67] Creating layer relu3_2
I0912 11:01:05.648367 3162887104 net.cpp:96] Creating Layer relu3_2
I0912 11:01:05.648373 3162887104 net.cpp:444] relu3_2 <- conv3_2
I0912 11:01:05.648380 3162887104 net.cpp:400] relu3_2 -> conv3_2 (in-place)
I0912 11:01:05.648386 3162887104 net.cpp:134] Setting up relu3_2
I0912 11:01:05.648391 3162887104 net.cpp:142] Top shape: 1 256 56 56 (802816)
I0912 11:01:05.648397 3162887104 layer_factory.cpp:67] Creating layer conv3_3
I0912 11:01:05.648404 3162887104 net.cpp:96] Creating Layer conv3_3
I0912 11:01:05.648409 3162887104 net.cpp:444] conv3_3 <- conv3_2
I0912 11:01:05.648416 3162887104 net.cpp:413] conv3_3 -> conv3_3
I0912 11:01:05.650152 3162887104 net.cpp:134] Setting up conv3_3
I0912 11:01:05.650177 3162887104 net.cpp:142] Top shape: 1 256 56 56 (802816)
I0912 11:01:05.650189 3162887104 layer_factory.cpp:67] Creating layer relu3_3
I0912 11:01:05.650197 3162887104 net.cpp:96] Creating Layer relu3_3
I0912 11:01:05.650202 3162887104 net.cpp:444] relu3_3 <- conv3_3
I0912 11:01:05.650208 3162887104 net.cpp:400] relu3_3 -> conv3_3 (in-place)
I0912 11:01:05.650215 3162887104 net.cpp:134] Setting up relu3_3
I0912 11:01:05.650219 3162887104 net.cpp:142] Top shape: 1 256 56 56 (802816)
I0912 11:01:05.650228 3162887104 layer_factory.cpp:67] Creating layer pool3
I0912 11:01:05.650235 3162887104 net.cpp:96] Creating Layer pool3
I0912 11:01:05.650298 3162887104 net.cpp:444] pool3 <- conv3_3
I0912 11:01:05.650331 3162887104 net.cpp:413] pool3 -> pool3
I0912 11:01:05.650513 3162887104 net.cpp:134] Setting up pool3
I0912 11:01:05.650528 3162887104 net.cpp:142] Top shape: 1 256 28 28 (200704)
I0912 11:01:05.650538 3162887104 layer_factory.cpp:67] Creating layer conv4_1
I0912 11:01:05.650545 3162887104 net.cpp:96] Creating Layer conv4_1
I0912 11:01:05.650550 3162887104 net.cpp:444] conv4_1 <- pool3
I0912 11:01:05.650557 3162887104 net.cpp:413] conv4_1 -> conv4_1
I0912 11:01:05.653774 3162887104 net.cpp:134] Setting up conv4_1
I0912 11:01:05.653803 3162887104 net.cpp:142] Top shape: 1 512 28 28 (401408)
I0912 11:01:05.653817 3162887104 layer_factory.cpp:67] Creating layer relu4_1
I0912 11:01:05.653825 3162887104 net.cpp:96] Creating Layer relu4_1
I0912 11:01:05.653831 3162887104 net.cpp:444] relu4_1 <- conv4_1
I0912 11:01:05.653843 3162887104 net.cpp:400] relu4_1 -> conv4_1 (in-place)
I0912 11:01:05.653851 3162887104 net.cpp:134] Setting up relu4_1
I0912 11:01:05.653856 3162887104 net.cpp:142] Top shape: 1 512 28 28 (401408)
I0912 11:01:05.653863 3162887104 layer_factory.cpp:67] Creating layer conv4_2
I0912 11:01:05.653869 3162887104 net.cpp:96] Creating Layer conv4_2
I0912 11:01:05.653874 3162887104 net.cpp:444] conv4_2 <- conv4_1
I0912 11:01:05.653880 3162887104 net.cpp:413] conv4_2 -> conv4_2
I0912 11:01:05.659785 3162887104 net.cpp:134] Setting up conv4_2
I0912 11:01:05.659816 3162887104 net.cpp:142] Top shape: 1 512 28 28 (401408)
I0912 11:01:05.659832 3162887104 layer_factory.cpp:67] Creating layer relu4_2
I0912 11:01:05.659842 3162887104 net.cpp:96] Creating Layer relu4_2
I0912 11:01:05.659847 3162887104 net.cpp:444] relu4_2 <- conv4_2
I0912 11:01:05.659854 3162887104 net.cpp:400] relu4_2 -> conv4_2 (in-place)
I0912 11:01:05.659862 3162887104 net.cpp:134] Setting up relu4_2
I0912 11:01:05.659868 3162887104 net.cpp:142] Top shape: 1 512 28 28 (401408)
I0912 11:01:05.659875 3162887104 layer_factory.cpp:67] Creating layer conv4_3
I0912 11:01:05.659883 3162887104 net.cpp:96] Creating Layer conv4_3
I0912 11:01:05.659888 3162887104 net.cpp:444] conv4_3 <- conv4_2
I0912 11:01:05.659894 3162887104 net.cpp:413] conv4_3 -> conv4_3
I0912 11:01:05.665966 3162887104 net.cpp:134] Setting up conv4_3
I0912 11:01:05.665997 3162887104 net.cpp:142] Top shape: 1 512 28 28 (401408)
I0912 11:01:05.666012 3162887104 layer_factory.cpp:67] Creating layer relu4_3
I0912 11:01:05.666019 3162887104 net.cpp:96] Creating Layer relu4_3
I0912 11:01:05.666025 3162887104 net.cpp:444] relu4_3 <- conv4_3
I0912 11:01:05.666033 3162887104 net.cpp:400] relu4_3 -> conv4_3 (in-place)
I0912 11:01:05.666039 3162887104 net.cpp:134] Setting up relu4_3
I0912 11:01:05.666044 3162887104 net.cpp:142] Top shape: 1 512 28 28 (401408)
I0912 11:01:05.666052 3162887104 layer_factory.cpp:67] Creating layer pool4
I0912 11:01:05.666059 3162887104 net.cpp:96] Creating Layer pool4
I0912 11:01:05.666064 3162887104 net.cpp:444] pool4 <- conv4_3
I0912 11:01:05.666070 3162887104 net.cpp:413] pool4 -> pool4
I0912 11:01:05.666199 3162887104 net.cpp:134] Setting up pool4
I0912 11:01:05.666208 3162887104 net.cpp:142] Top shape: 1 512 14 14 (100352)
I0912 11:01:05.666215 3162887104 layer_factory.cpp:67] Creating layer conv5_1
I0912 11:01:05.666223 3162887104 net.cpp:96] Creating Layer conv5_1
I0912 11:01:05.666227 3162887104 net.cpp:444] conv5_1 <- pool4
I0912 11:01:05.666234 3162887104 net.cpp:413] conv5_1 -> conv5_1
I0912 11:01:05.674038 3162887104 net.cpp:134] Setting up conv5_1
I0912 11:01:05.674074 3162887104 net.cpp:142] Top shape: 1 512 14 14 (100352)
I0912 11:01:05.674094 3162887104 layer_factory.cpp:67] Creating layer relu5_1
I0912 11:01:05.674104 3162887104 net.cpp:96] Creating Layer relu5_1
I0912 11:01:05.674113 3162887104 net.cpp:444] relu5_1 <- conv5_1
I0912 11:01:05.674120 3162887104 net.cpp:400] relu5_1 -> conv5_1 (in-place)
I0912 11:01:05.674130 3162887104 net.cpp:134] Setting up relu5_1
I0912 11:01:05.674135 3162887104 net.cpp:142] Top shape: 1 512 14 14 (100352)
I0912 11:01:05.674165 3162887104 layer_factory.cpp:67] Creating layer conv5_2
I0912 11:01:05.674191 3162887104 net.cpp:96] Creating Layer conv5_2
I0912 11:01:05.674198 3162887104 net.cpp:444] conv5_2 <- conv5_1
I0912 11:01:05.674206 3162887104 net.cpp:413] conv5_2 -> conv5_2
I0912 11:01:05.680925 3162887104 net.cpp:134] Setting up conv5_2
I0912 11:01:05.680958 3162887104 net.cpp:142] Top shape: 1 512 14 14 (100352)
I0912 11:01:05.680975 3162887104 layer_factory.cpp:67] Creating layer relu5_2
I0912 11:01:05.680985 3162887104 net.cpp:96] Creating Layer relu5_2
I0912 11:01:05.680994 3162887104 net.cpp:444] relu5_2 <- conv5_2
I0912 11:01:05.681000 3162887104 net.cpp:400] relu5_2 -> conv5_2 (in-place)
I0912 11:01:05.681008 3162887104 net.cpp:134] Setting up relu5_2
I0912 11:01:05.681015 3162887104 net.cpp:142] Top shape: 1 512 14 14 (100352)
I0912 11:01:05.681022 3162887104 layer_factory.cpp:67] Creating layer conv5_3
I0912 11:01:05.681030 3162887104 net.cpp:96] Creating Layer conv5_3
I0912 11:01:05.681036 3162887104 net.cpp:444] conv5_3 <- conv5_2
I0912 11:01:05.681043 3162887104 net.cpp:413] conv5_3 -> conv5_3
I0912 11:01:05.686960 3162887104 net.cpp:134] Setting up conv5_3
I0912 11:01:05.686990 3162887104 net.cpp:142] Top shape: 1 512 14 14 (100352)
I0912 11:01:05.687003 3162887104 layer_factory.cpp:67] Creating layer relu5_3
I0912 11:01:05.687011 3162887104 net.cpp:96] Creating Layer relu5_3
I0912 11:01:05.687017 3162887104 net.cpp:444] relu5_3 <- conv5_3
I0912 11:01:05.687023 3162887104 net.cpp:400] relu5_3 -> conv5_3 (in-place)
I0912 11:01:05.687031 3162887104 net.cpp:134] Setting up relu5_3
I0912 11:01:05.687036 3162887104 net.cpp:142] Top shape: 1 512 14 14 (100352)
I0912 11:01:05.687043 3162887104 layer_factory.cpp:67] Creating layer pool5
I0912 11:01:05.687050 3162887104 net.cpp:96] Creating Layer pool5
I0912 11:01:05.687055 3162887104 net.cpp:444] pool5 <- conv5_3
I0912 11:01:05.687060 3162887104 net.cpp:413] pool5 -> pool5
I0912 11:01:05.687177 3162887104 net.cpp:134] Setting up pool5
I0912 11:01:05.687186 3162887104 net.cpp:142] Top shape: 1 512 7 7 (25088)
I0912 11:01:05.687194 3162887104 layer_factory.cpp:67] Creating layer fc6
I0912 11:01:05.687211 3162887104 net.cpp:96] Creating Layer fc6
I0912 11:01:05.687216 3162887104 net.cpp:444] fc6 <- pool5
I0912 11:01:05.687222 3162887104 net.cpp:413] fc6 -> fc6
I0912 11:01:05.932988 3162887104 net.cpp:134] Setting up fc6
I0912 11:01:05.933034 3162887104 net.cpp:142] Top shape: 1 4096 (4096)
I0912 11:01:05.933056 3162887104 layer_factory.cpp:67] Creating layer relu6
I0912 11:01:05.933066 3162887104 net.cpp:96] Creating Layer relu6
I0912 11:01:05.933073 3162887104 net.cpp:444] relu6 <- fc6
I0912 11:01:05.933080 3162887104 net.cpp:400] relu6 -> fc6 (in-place)
I0912 11:01:05.933089 3162887104 net.cpp:134] Setting up relu6
I0912 11:01:05.933095 3162887104 net.cpp:142] Top shape: 1 4096 (4096)
I0912 11:01:05.933102 3162887104 layer_factory.cpp:67] Creating layer drop6
I0912 11:01:05.933110 3162887104 net.cpp:96] Creating Layer drop6
I0912 11:01:05.933116 3162887104 net.cpp:444] drop6 <- fc6
I0912 11:01:05.933123 3162887104 net.cpp:400] drop6 -> fc6 (in-place)
I0912 11:01:05.933142 3162887104 net.cpp:134] Setting up drop6
I0912 11:01:05.933148 3162887104 net.cpp:142] Top shape: 1 4096 (4096)
I0912 11:01:05.933156 3162887104 layer_factory.cpp:67] Creating layer fc7
I0912 11:01:05.933162 3162887104 net.cpp:96] Creating Layer fc7
I0912 11:01:05.933167 3162887104 net.cpp:444] fc7 <- fc6
I0912 11:01:05.933173 3162887104 net.cpp:413] fc7 -> fc7
I0912 11:01:05.971663 3162887104 net.cpp:134] Setting up fc7
I0912 11:01:05.971702 3162887104 net.cpp:142] Top shape: 1 4096 (4096)
I0912 11:01:05.971719 3162887104 layer_factory.cpp:67] Creating layer relu7
I0912 11:01:05.971727 3162887104 net.cpp:96] Creating Layer relu7
I0912 11:01:05.971735 3162887104 net.cpp:444] relu7 <- fc7
I0912 11:01:05.971741 3162887104 net.cpp:400] relu7 -> fc7 (in-place)
I0912 11:01:05.971750 3162887104 net.cpp:134] Setting up relu7
I0912 11:01:05.971755 3162887104 net.cpp:142] Top shape: 1 4096 (4096)
I0912 11:01:05.971781 3162887104 layer_factory.cpp:67] Creating layer drop7
I0912 11:01:05.971803 3162887104 net.cpp:96] Creating Layer drop7
I0912 11:01:05.971809 3162887104 net.cpp:444] drop7 <- fc7
I0912 11:01:05.971817 3162887104 net.cpp:400] drop7 -> fc7 (in-place)
I0912 11:01:05.971824 3162887104 net.cpp:134] Setting up drop7
I0912 11:01:05.971829 3162887104 net.cpp:142] Top shape: 1 4096 (4096)
I0912 11:01:05.971837 3162887104 layer_factory.cpp:67] Creating layer fc8_emo
I0912 11:01:05.971848 3162887104 net.cpp:96] Creating Layer fc8_emo
I0912 11:01:05.971853 3162887104 net.cpp:444] fc8_emo <- fc7
I0912 11:01:05.971860 3162887104 net.cpp:413] fc8_emo -> fc8_emo
I0912 11:01:05.971926 3162887104 net.cpp:134] Setting up fc8_emo
I0912 11:01:05.971933 3162887104 net.cpp:142] Top shape: 1 6 (6)
I0912 11:01:05.971941 3162887104 layer_factory.cpp:67] Creating layer prob
I0912 11:01:05.971948 3162887104 net.cpp:96] Creating Layer prob
I0912 11:01:05.971954 3162887104 net.cpp:444] prob <- fc8_emo
I0912 11:01:05.971961 3162887104 net.cpp:413] prob -> prob
I0912 11:01:05.971968 3162887104 net.cpp:134] Setting up prob
I0912 11:01:05.971973 3162887104 net.cpp:142] Top shape: 1 6 (6)
I0912 11:01:05.971981 3162887104 net.cpp:223] prob does not need backward computation.
I0912 11:01:05.971985 3162887104 net.cpp:223] fc8_emo does not need backward computation.
I0912 11:01:05.971990 3162887104 net.cpp:223] drop7 does not need backward computation.
I0912 11:01:05.971995 3162887104 net.cpp:223] relu7 does not need backward computation.
I0912 11:01:05.972000 3162887104 net.cpp:223] fc7 does not need backward computation.
…
