…
I0918 19:22:33.749204 3994616768 net.cpp:322] The NetState phase (0) differed from the phase (1) specified by a rule in layer data
I0918 19:22:33.749249 3994616768 net.cpp:322] The NetState phase (0) differed from the phase (1) specified by a rule in layer accuracy
I0918 19:22:33.749258 3994616768 net.cpp:57] Initializing net from parameters: 
name: "SpeechNet"
state {
  phase: TRAIN
  level: 0
  stage: ""
}
layer {
  name: "data"
  type: "Data"
  top: "data"
  top: "label"
  include {
    phase: TRAIN
  }
  transform_param {
    crop_size: 36
  }
  data_param {
    source: "../datasets/speech/EMODB/3 - LMDB/train"
    batch_size: 16
    backend: LMDB
  }
}
layer {
  name: "conv1"
  type: "Convolution"
  bottom: "data"
  top: "conv1"
  param {
    lr_mult: 1
  }
  param {
    lr_mult: 2
  }
  convolution_param {
    num_output: 32
    kernel_size: 5
    stride: 1
    weight_filler {
      type: "xavier"
    }
    bias_filler {
      type: "constant"
    }
  }
}
layer {
  name: "relu1"
  type: "ReLU"
  bottom: "conv1"
  top: "relu1"
}
layer {
  name: "conv2"
  type: "Convolution"
  bottom: "relu1"
  top: "conv2"
  param {
    lr_mult: 1
  }
  param {
    lr_mult: 2
  }
  convolution_param {
    num_output: 64
    kernel_size: 5
    stride: 1
    weight_filler {
      type: "xavier"
    }
    bias_filler {
      type: "constant"
    }
  }
}
layer {
  name: "relu2"
  type: "ReLU"
  bottom: "conv2"
  top: "relu2"
}
layer {
  name: "pool1"
  type: "Pooling"
  bottom: "relu2"
  top: "pool1"
  pooling_param {
    pool: MAX
    kernel_size: 2
    stride: 2
  }
}
layer {
  name: "conv3"
  type: "Convolution"
  bottom: "pool1"
  top: "conv3"
  param {
    lr_mult: 1
  }
  param {
    lr_mult: 2
  }
  convolution_param {
    num_output: 128
    kernel_size: 5
    stride: 1
    weight_filler {
      type: "xavier"
    }
    bias_filler {
      type: "constant"
    }
  }
}
layer {
  name: "relu3"
  type: "ReLU"
  bottom: "conv3"
  top: "relu3"
}
layer {
  name: "conv4"
  type: "Convolution"
  bottom: "relu3"
  top: "conv4"
  param {
    lr_mult: 1
  }
  param {
    lr_mult: 2
  }
  convolution_param {
    num_output: 256
    kernel_size: 5
    stride: 1
    weight_filler {
      type: "xavier"
    }
    bias_filler {
      type: "constant"
    }
  }
}
layer {
  name: "relu4"
  type: "ReLU"
  bottom: "conv4"
  top: "relu4"
}
layer {
  name: "pool2"
  type: "Pooling"
  bottom: "relu4"
  top: "pool2"
  pooling_param {
    pool: MAX
    kernel_size: 2
    stride: 2
  }
}
layer {
  name: "drop1"
  type: "Dropout"
  bottom: "pool2"
  top: "drop1"
  dropout_param {
    dropout_ratio: 0.5
  }
}
layer {
  name: "ip1"
  type: "InnerProduct"
  bottom: "drop1"
  top: "ip1"
  param {
    lr_mult: 1
  }
  param {
    lr_mult: 2
  }
  inner_product_param {
    num_output: 6
    weight_filler {
      type: "xavier"
    }
    bias_filler {
      type: "constant"
    }
  }
}
layer {
  name: "loss"
  type: "SoftmaxWithLoss"
  bottom: "ip1"
  bottom: "label"
  top: "loss"
}
I0918 19:22:33.749974 3994616768 layer_factory.cpp:67] Creating layer data
I0918 19:22:33.751423 3994616768 db_lmdb.cpp:40] Opened lmdb ../datasets/speech/EMODB/3 - LMDB/train
I0918 19:22:33.753232 3994616768 net.cpp:96] Creating Layer data
I0918 19:22:33.753265 3994616768 net.cpp:413] data -> data
I0918 19:22:33.753294 3994616768 net.cpp:413] data -> label
I0918 19:22:33.759474 3994616768 data_layer.cpp:46] output data size: 16,1,36,36
I0918 19:22:33.759758 3994616768 net.cpp:134] Setting up data
I0918 19:22:33.759770 3994616768 net.cpp:142] Top shape: 16 1 36 36 (20736)
I0918 19:22:33.759809 3994616768 net.cpp:142] Top shape: 16 (16)
I0918 19:22:33.759832 3994616768 layer_factory.cpp:67] Creating layer conv1
I0918 19:22:33.760324 3994616768 net.cpp:96] Creating Layer conv1
I0918 19:22:33.760347 3994616768 net.cpp:444] conv1 <- data
I0918 19:22:33.760360 3994616768 net.cpp:413] conv1 -> conv1
I0918 19:22:33.762934 3994616768 net.cpp:134] Setting up conv1
I0918 19:22:33.762951 3994616768 net.cpp:142] Top shape: 16 32 32 32 (524288)
I0918 19:22:33.762974 3994616768 layer_factory.cpp:67] Creating layer relu1
I0918 19:22:33.762985 3994616768 net.cpp:96] Creating Layer relu1
I0918 19:22:33.762990 3994616768 net.cpp:444] relu1 <- conv1
I0918 19:22:33.762996 3994616768 net.cpp:413] relu1 -> relu1
I0918 19:22:33.763005 3994616768 net.cpp:134] Setting up relu1
I0918 19:22:33.763010 3994616768 net.cpp:142] Top shape: 16 32 32 32 (524288)
I0918 19:22:33.763018 3994616768 layer_factory.cpp:67] Creating layer conv2
I0918 19:22:33.763026 3994616768 net.cpp:96] Creating Layer conv2
I0918 19:22:33.763031 3994616768 net.cpp:444] conv2 <- relu1
I0918 19:22:33.763037 3994616768 net.cpp:413] conv2 -> conv2
I0918 19:22:33.764506 3994616768 net.cpp:134] Setting up conv2
I0918 19:22:33.764519 3994616768 net.cpp:142] Top shape: 16 64 28 28 (802816)
I0918 19:22:33.764533 3994616768 layer_factory.cpp:67] Creating layer relu2
I0918 19:22:33.764539 3994616768 net.cpp:96] Creating Layer relu2
I0918 19:22:33.764544 3994616768 net.cpp:444] relu2 <- conv2
I0918 19:22:33.764549 3994616768 net.cpp:413] relu2 -> relu2
I0918 19:22:33.764556 3994616768 net.cpp:134] Setting up relu2
I0918 19:22:33.764560 3994616768 net.cpp:142] Top shape: 16 64 28 28 (802816)
I0918 19:22:33.764567 3994616768 layer_factory.cpp:67] Creating layer pool1
I0918 19:22:33.764577 3994616768 net.cpp:96] Creating Layer pool1
I0918 19:22:33.764582 3994616768 net.cpp:444] pool1 <- relu2
I0918 19:22:33.764587 3994616768 net.cpp:413] pool1 -> pool1
I0918 19:22:33.765235 3994616768 net.cpp:134] Setting up pool1
I0918 19:22:33.765262 3994616768 net.cpp:142] Top shape: 16 64 14 14 (200704)
I0918 19:22:33.765277 3994616768 layer_factory.cpp:67] Creating layer conv3
I0918 19:22:33.765286 3994616768 net.cpp:96] Creating Layer conv3
I0918 19:22:33.765292 3994616768 net.cpp:444] conv3 <- pool1
I0918 19:22:33.765300 3994616768 net.cpp:413] conv3 -> conv3
I0918 19:22:33.769203 3994616768 net.cpp:134] Setting up conv3
I0918 19:22:33.769214 3994616768 net.cpp:142] Top shape: 16 128 10 10 (204800)
I0918 19:22:33.769225 3994616768 layer_factory.cpp:67] Creating layer relu3
I0918 19:22:33.769232 3994616768 net.cpp:96] Creating Layer relu3
I0918 19:22:33.769235 3994616768 net.cpp:444] relu3 <- conv3
I0918 19:22:33.769240 3994616768 net.cpp:413] relu3 -> relu3
I0918 19:22:33.769248 3994616768 net.cpp:134] Setting up relu3
I0918 19:22:33.769255 3994616768 net.cpp:142] Top shape: 16 128 10 10 (204800)
I0918 19:22:33.769264 3994616768 layer_factory.cpp:67] Creating layer conv4
I0918 19:22:33.769270 3994616768 net.cpp:96] Creating Layer conv4
I0918 19:22:33.769274 3994616768 net.cpp:444] conv4 <- relu3
I0918 19:22:33.769279 3994616768 net.cpp:413] conv4 -> conv4
I0918 19:22:33.782665 3994616768 net.cpp:134] Setting up conv4
I0918 19:22:33.782688 3994616768 net.cpp:142] Top shape: 16 256 6 6 (147456)
I0918 19:22:33.782709 3994616768 layer_factory.cpp:67] Creating layer relu4
I0918 19:22:33.782721 3994616768 net.cpp:96] Creating Layer relu4
I0918 19:22:33.782728 3994616768 net.cpp:444] relu4 <- conv4
I0918 19:22:33.782750 3994616768 net.cpp:413] relu4 -> relu4
I0918 19:22:33.782765 3994616768 net.cpp:134] Setting up relu4
I0918 19:22:33.782773 3994616768 net.cpp:142] Top shape: 16 256 6 6 (147456)
I0918 19:22:33.782788 3994616768 layer_factory.cpp:67] Creating layer pool2
I0918 19:22:33.782799 3994616768 net.cpp:96] Creating Layer pool2
I0918 19:22:33.782806 3994616768 net.cpp:444] pool2 <- relu4
I0918 19:22:33.782816 3994616768 net.cpp:413] pool2 -> pool2
I0918 19:22:33.782946 3994616768 net.cpp:134] Setting up pool2
I0918 19:22:33.782981 3994616768 net.cpp:142] Top shape: 16 256 3 3 (36864)
I0918 19:22:33.782996 3994616768 layer_factory.cpp:67] Creating layer drop1
I0918 19:22:33.783013 3994616768 net.cpp:96] Creating Layer drop1
I0918 19:22:33.783021 3994616768 net.cpp:444] drop1 <- pool2
I0918 19:22:33.783030 3994616768 net.cpp:413] drop1 -> drop1
I0918 19:22:33.783051 3994616768 net.cpp:134] Setting up drop1
I0918 19:22:33.783056 3994616768 net.cpp:142] Top shape: 16 256 3 3 (36864)
I0918 19:22:33.783071 3994616768 layer_factory.cpp:67] Creating layer ip1
I0918 19:22:33.783087 3994616768 net.cpp:96] Creating Layer ip1
I0918 19:22:33.783094 3994616768 net.cpp:444] ip1 <- drop1
I0918 19:22:33.783104 3994616768 net.cpp:413] ip1 -> ip1
I0918 19:22:33.783362 3994616768 net.cpp:134] Setting up ip1
I0918 19:22:33.783368 3994616768 net.cpp:142] Top shape: 16 6 (96)
I0918 19:22:33.783386 3994616768 layer_factory.cpp:67] Creating layer loss
I0918 19:22:33.783401 3994616768 net.cpp:96] Creating Layer loss
I0918 19:22:33.783408 3994616768 net.cpp:444] loss <- ip1
I0918 19:22:33.783416 3994616768 net.cpp:444] loss <- label
I0918 19:22:33.783427 3994616768 net.cpp:413] loss -> loss
I0918 19:22:33.783442 3994616768 layer_factory.cpp:67] Creating layer loss
…
I0918 19:22:33.783865 3994616768 solver.cpp:194] Creating test net (#0) specified by net file: ../models/speech_net/conv4/train_test.prototxt
I0918 19:22:33.783897 3994616768 net.cpp:322] The NetState phase (1) differed from the phase (0) specified by a rule in layer data
I0918 19:22:33.783916 3994616768 net.cpp:57] Initializing net from parameters: 
name: "SpeechNet"
state {
  phase: TEST
}
layer {
  name: "data"
  type: "Data"
  top: "data"
  top: "label"
  include {
    phase: TEST
  }
  transform_param {
    crop_size: 36
  }
  data_param {
    source: "../datasets/speech/EMODB/3 - LMDB/test"
    batch_size: 1
    backend: LMDB
  }
}
layer {
  name: "conv1"
  type: "Convolution"
  bottom: "data"
  top: "conv1"
  param {
    lr_mult: 1
  }
  param {
    lr_mult: 2
  }
  convolution_param {
    num_output: 32
    kernel_size: 5
    stride: 1
    weight_filler {
      type: "xavier"
    }
    bias_filler {
      type: "constant"
    }
  }
}
layer {
  name: "relu1"
  type: "ReLU"
  bottom: "conv1"
  top: "relu1"
}
layer {
  name: "conv2"
  type: "Convolution"
  bottom: "relu1"
  top: "conv2"
  param {
    lr_mult: 1
  }
  param {
    lr_mult: 2
  }
  convolution_param {
    num_output: 64
    kernel_size: 5
    stride: 1
    weight_filler {
      type: "xavier"
    }
    bias_filler {
      type: "constant"
    }
  }
}
layer {
  name: "relu2"
  type: "ReLU"
  bottom: "conv2"
  top: "relu2"
}
layer {
  name: "pool1"
  type: "Pooling"
  bottom: "relu2"
  top: "pool1"
  pooling_param {
    pool: MAX
    kernel_size: 2
    stride: 2
  }
}
layer {
  name: "conv3"
  type: "Convolution"
  bottom: "pool1"
  top: "conv3"
  param {
    lr_mult: 1
  }
  param {
    lr_mult: 2
  }
  convolution_param {
    num_output: 128
    kernel_size: 5
    stride: 1
    weight_filler {
      type: "xavier"
    }
    bias_filler {
      type: "constant"
    }
  }
}
layer {
  name: "relu3"
  type: "ReLU"
  bottom: "conv3"
  top: "relu3"
}
layer {
  name: "conv4"
  type: "Convolution"
  bottom: "relu3"
  top: "conv4"
  param {
    lr_mult: 1
  }
  param {
    lr_mult: 2
  }
  convolution_param {
    num_output: 256
    kernel_size: 5
    stride: 1
    weight_filler {
      type: "xavier"
    }
    bias_filler {
      type: "constant"
    }
  }
}
layer {
  name: "relu4"
  type: "ReLU"
  bottom: "conv4"
  top: "relu4"
}
layer {
  name: "pool2"
  type: "Pooling"
  bottom: "relu4"
  top: "pool2"
  pooling_param {
    pool: MAX
    kernel_size: 2
    stride: 2
  }
}
layer {
  name: "drop1"
  type: "Dropout"
  bottom: "pool2"
  top: "drop1"
  dropout_param {
    dropout_ratio: 0.5
  }
}
layer {
  name: "ip1"
  type: "InnerProduct"
  bottom: "drop1"
  top: "ip1"
  param {
    lr_mult: 1
  }
  param {
    lr_mult: 2
  }
  inner_product_param {
    num_output: 6
    weight_filler {
      type: "xavier"
    }
    bias_filler {
      type: "constant"
    }
  }
}
layer {
  name: "accuracy"
  type: "Accuracy"
  bottom: "ip1"
  bottom: "label"
  top: "accuracy"
  include {
    phase: TEST
  }
}
layer {
  name: "loss"
  type: "SoftmaxWithLoss"
  bottom: "ip1"
  bottom: "label"
  top: "loss"
}
I0918 19:22:33.784102 3994616768 layer_factory.cpp:67] Creating layer data
I0918 19:22:33.785209 3994616768 db_lmdb.cpp:40] Opened lmdb ../datasets/speech/EMODB/3 - LMDB/test
I0918 19:22:33.791190 3994616768 net.cpp:96] Creating Layer data
I0918 19:22:33.791225 3994616768 net.cpp:413] data -> data
I0918 19:22:33.791244 3994616768 net.cpp:413] data -> label
I0918 19:22:33.791558 3994616768 data_layer.cpp:46] output data size: 1,1,36,36
I0918 19:22:33.791657 3994616768 net.cpp:134] Setting up data
I0918 19:22:33.791676 3994616768 net.cpp:142] Top shape: 1 1 36 36 (1296)
I0918 19:22:33.791689 3994616768 net.cpp:142] Top shape: 1 (1)
I0918 19:22:33.791704 3994616768 layer_factory.cpp:67] Creating layer label_data_1_split
I0918 19:22:33.791718 3994616768 net.cpp:96] Creating Layer label_data_1_split
I0918 19:22:33.791735 3994616768 net.cpp:444] label_data_1_split <- label
I0918 19:22:33.791746 3994616768 net.cpp:413] label_data_1_split -> label_data_1_split_0
I0918 19:22:33.791759 3994616768 net.cpp:413] label_data_1_split -> label_data_1_split_1
I0918 19:22:33.791770 3994616768 net.cpp:134] Setting up label_data_1_split
I0918 19:22:33.791777 3994616768 net.cpp:142] Top shape: 1 (1)
I0918 19:22:33.791787 3994616768 net.cpp:142] Top shape: 1 (1)
I0918 19:22:33.791800 3994616768 layer_factory.cpp:67] Creating layer conv1
I0918 19:22:33.791813 3994616768 net.cpp:96] Creating Layer conv1
I0918 19:22:33.791821 3994616768 net.cpp:444] conv1 <- data
I0918 19:22:33.791848 3994616768 net.cpp:413] conv1 -> conv1
I0918 19:22:33.792388 3994616768 net.cpp:134] Setting up conv1
I0918 19:22:33.792398 3994616768 net.cpp:142] Top shape: 1 32 32 32 (32768)
I0918 19:22:33.792409 3994616768 layer_factory.cpp:67] Creating layer relu1
I0918 19:22:33.792421 3994616768 net.cpp:96] Creating Layer relu1
I0918 19:22:33.792425 3994616768 net.cpp:444] relu1 <- conv1
I0918 19:22:33.792430 3994616768 net.cpp:413] relu1 -> relu1
I0918 19:22:33.792436 3994616768 net.cpp:134] Setting up relu1
I0918 19:22:33.792440 3994616768 net.cpp:142] Top shape: 1 32 32 32 (32768)
I0918 19:22:33.792448 3994616768 layer_factory.cpp:67] Creating layer conv2
I0918 19:22:33.792454 3994616768 net.cpp:96] Creating Layer conv2
I0918 19:22:33.792459 3994616768 net.cpp:444] conv2 <- relu1
I0918 19:22:33.792462 3994616768 net.cpp:413] conv2 -> conv2
I0918 19:22:33.793757 3994616768 net.cpp:134] Setting up conv2
I0918 19:22:33.793767 3994616768 net.cpp:142] Top shape: 1 64 28 28 (50176)
I0918 19:22:33.793779 3994616768 layer_factory.cpp:67] Creating layer relu2
I0918 19:22:33.793786 3994616768 net.cpp:96] Creating Layer relu2
I0918 19:22:33.793789 3994616768 net.cpp:444] relu2 <- conv2
I0918 19:22:33.793798 3994616768 net.cpp:413] relu2 -> relu2
I0918 19:22:33.793804 3994616768 net.cpp:134] Setting up relu2
I0918 19:22:33.793809 3994616768 net.cpp:142] Top shape: 1 64 28 28 (50176)
I0918 19:22:33.793817 3994616768 layer_factory.cpp:67] Creating layer pool1
I0918 19:22:33.793823 3994616768 net.cpp:96] Creating Layer pool1
I0918 19:22:33.793826 3994616768 net.cpp:444] pool1 <- relu2
I0918 19:22:33.793830 3994616768 net.cpp:413] pool1 -> pool1
I0918 19:22:33.793949 3994616768 net.cpp:134] Setting up pool1
I0918 19:22:33.793956 3994616768 net.cpp:142] Top shape: 1 64 14 14 (12544)
I0918 19:22:33.793970 3994616768 layer_factory.cpp:67] Creating layer conv3
I0918 19:22:33.794003 3994616768 net.cpp:96] Creating Layer conv3
I0918 19:22:33.794020 3994616768 net.cpp:444] conv3 <- pool1
I0918 19:22:33.794034 3994616768 net.cpp:413] conv3 -> conv3
I0918 19:22:33.797665 3994616768 net.cpp:134] Setting up conv3
I0918 19:22:33.797677 3994616768 net.cpp:142] Top shape: 1 128 10 10 (12800)
I0918 19:22:33.797688 3994616768 layer_factory.cpp:67] Creating layer relu3
I0918 19:22:33.797719 3994616768 net.cpp:96] Creating Layer relu3
I0918 19:22:33.797734 3994616768 net.cpp:444] relu3 <- conv3
I0918 19:22:33.797744 3994616768 net.cpp:413] relu3 -> relu3
I0918 19:22:33.797755 3994616768 net.cpp:134] Setting up relu3
I0918 19:22:33.797762 3994616768 net.cpp:142] Top shape: 1 128 10 10 (12800)
I0918 19:22:33.797777 3994616768 layer_factory.cpp:67] Creating layer conv4
I0918 19:22:33.797787 3994616768 net.cpp:96] Creating Layer conv4
I0918 19:22:33.797796 3994616768 net.cpp:444] conv4 <- relu3
I0918 19:22:33.797806 3994616768 net.cpp:413] conv4 -> conv4
I0918 19:22:33.814612 3994616768 net.cpp:134] Setting up conv4
I0918 19:22:33.814633 3994616768 net.cpp:142] Top shape: 1 256 6 6 (9216)
I0918 19:22:33.814657 3994616768 layer_factory.cpp:67] Creating layer relu4
I0918 19:22:33.814666 3994616768 net.cpp:96] Creating Layer relu4
I0918 19:22:33.814672 3994616768 net.cpp:444] relu4 <- conv4
I0918 19:22:33.814679 3994616768 net.cpp:413] relu4 -> relu4
I0918 19:22:33.814692 3994616768 net.cpp:134] Setting up relu4
I0918 19:22:33.814699 3994616768 net.cpp:142] Top shape: 1 256 6 6 (9216)
I0918 19:22:33.814709 3994616768 layer_factory.cpp:67] Creating layer pool2
I0918 19:22:33.814718 3994616768 net.cpp:96] Creating Layer pool2
I0918 19:22:33.814721 3994616768 net.cpp:444] pool2 <- relu4
I0918 19:22:33.814728 3994616768 net.cpp:413] pool2 -> pool2
I0918 19:22:33.814878 3994616768 net.cpp:134] Setting up pool2
I0918 19:22:33.814891 3994616768 net.cpp:142] Top shape: 1 256 3 3 (2304)
I0918 19:22:33.814908 3994616768 layer_factory.cpp:67] Creating layer drop1
I0918 19:22:33.814918 3994616768 net.cpp:96] Creating Layer drop1
I0918 19:22:33.814927 3994616768 net.cpp:444] drop1 <- pool2
I0918 19:22:33.814939 3994616768 net.cpp:413] drop1 -> drop1
I0918 19:22:33.814962 3994616768 net.cpp:134] Setting up drop1
I0918 19:22:33.814973 3994616768 net.cpp:142] Top shape: 1 256 3 3 (2304)
I0918 19:22:33.814990 3994616768 layer_factory.cpp:67] Creating layer ip1
I0918 19:22:33.815001 3994616768 net.cpp:96] Creating Layer ip1
I0918 19:22:33.815009 3994616768 net.cpp:444] ip1 <- drop1
I0918 19:22:33.815019 3994616768 net.cpp:413] ip1 -> ip1
I0918 19:22:33.815295 3994616768 net.cpp:134] Setting up ip1
I0918 19:22:33.815305 3994616768 net.cpp:142] Top shape: 1 6 (6)
I0918 19:22:33.815318 3994616768 layer_factory.cpp:67] Creating layer ip1_ip1_0_split
I0918 19:22:33.815325 3994616768 net.cpp:96] Creating Layer ip1_ip1_0_split
I0918 19:22:33.815330 3994616768 net.cpp:444] ip1_ip1_0_split <- ip1
I0918 19:22:33.815335 3994616768 net.cpp:413] ip1_ip1_0_split -> ip1_ip1_0_split_0
I0918 19:22:33.815378 3994616768 net.cpp:413] ip1_ip1_0_split -> ip1_ip1_0_split_1
I0918 19:22:33.815393 3994616768 net.cpp:134] Setting up ip1_ip1_0_split
I0918 19:22:33.815402 3994616768 net.cpp:142] Top shape: 1 6 (6)
I0918 19:22:33.815410 3994616768 net.cpp:142] Top shape: 1 6 (6)
I0918 19:22:33.815421 3994616768 layer_factory.cpp:67] Creating layer accuracy
I0918 19:22:33.815454 3994616768 net.cpp:96] Creating Layer accuracy
I0918 19:22:33.815464 3994616768 net.cpp:444] accuracy <- ip1_ip1_0_split_0
I0918 19:22:33.815475 3994616768 net.cpp:444] accuracy <- label_data_1_split_0
I0918 19:22:33.815486 3994616768 net.cpp:413] accuracy -> accuracy
I0918 19:22:33.815507 3994616768 net.cpp:134] Setting up accuracy
…
