…
I0919 17:28:21.078862 2487759808 net.cpp:322] The NetState phase (0) differed from the phase (1) specified by a rule in layer data
I0919 17:28:21.078904 2487759808 net.cpp:322] The NetState phase (0) differed from the phase (1) specified by a rule in layer accuracy
I0919 17:28:21.078915 2487759808 net.cpp:57] Initializing net from parameters: 
name: "SpeechNet"
state {
  phase: TRAIN
  level: 0
  stage: ""
}
layer {
  name: "data"
  type: "Data"
  top: "data"
  top: "label"
  include {
    phase: TRAIN
  }
  transform_param {
    crop_size: 36
  }
  data_param {
    source: "../datasets/speech/EMODB/3 - LMDB/train"
    batch_size: 16
    backend: LMDB
  }
}
layer {
  name: "conv1"
  type: "Convolution"
  bottom: "data"
  top: "conv1"
  param {
    lr_mult: 1
  }
  param {
    lr_mult: 2
  }
  convolution_param {
    num_output: 64
    kernel_size: 3
    stride: 1
    weight_filler {
      type: "xavier"
    }
    bias_filler {
      type: "constant"
    }
  }
}
layer {
  name: "relu1"
  type: "ReLU"
  bottom: "conv1"
  top: "relu1"
}
layer {
  name: "conv2"
  type: "Convolution"
  bottom: "relu1"
  top: "conv2"
  param {
    lr_mult: 1
  }
  param {
    lr_mult: 2
  }
  convolution_param {
    num_output: 128
    kernel_size: 3
    stride: 1
    weight_filler {
      type: "xavier"
    }
    bias_filler {
      type: "constant"
    }
  }
}
layer {
  name: "relu2"
  type: "ReLU"
  bottom: "conv2"
  top: "relu2"
}
layer {
  name: "pool1"
  type: "Pooling"
  bottom: "relu2"
  top: "pool1"
  pooling_param {
    pool: MAX
    kernel_size: 2
    stride: 2
  }
}
layer {
  name: "conv3"
  type: "Convolution"
  bottom: "pool1"
  top: "conv3"
  param {
    lr_mult: 1
  }
  param {
    lr_mult: 2
  }
  convolution_param {
    num_output: 256
    kernel_size: 3
    stride: 1
    weight_filler {
      type: "xavier"
    }
    bias_filler {
      type: "constant"
    }
  }
}
layer {
  name: "relu3"
  type: "ReLU"
  bottom: "conv3"
  top: "relu3"
}
layer {
  name: "conv4"
  type: "Convolution"
  bottom: "relu3"
  top: "conv4"
  param {
    lr_mult: 1
  }
  param {
    lr_mult: 2
  }
  convolution_param {
    num_output: 512
    kernel_size: 3
    stride: 1
    weight_filler {
      type: "xavier"
    }
    bias_filler {
      type: "constant"
    }
  }
}
layer {
  name: "relu4"
  type: "ReLU"
  bottom: "conv4"
  top: "relu4"
}
layer {
  name: "pool2"
  type: "Pooling"
  bottom: "relu4"
  top: "pool2"
  pooling_param {
    pool: MAX
    kernel_size: 2
    stride: 2
  }
}
layer {
  name: "drop1"
  type: "Dropout"
  bottom: "pool2"
  top: "drop1"
  dropout_param {
    dropout_ratio: 0.2
  }
}
layer {
  name: "ip1"
  type: "InnerProduct"
  bottom: "drop1"
  top: "ip1"
  param {
    lr_mult: 1
  }
  param {
    lr_mult: 2
  }
  inner_product_param {
    num_output: 6
    weight_filler {
      type: "xavier"
    }
    bias_filler {
      type: "constant"
    }
  }
}
layer {
  name: "loss"
  type: "SoftmaxWithLoss"
  bottom: "ip1"
  bottom: "label"
  top: "loss"
}
I0919 17:28:21.079797 2487759808 layer_factory.cpp:67] Creating layer data
I0919 17:28:21.081365 2487759808 db_lmdb.cpp:40] Opened lmdb ../datasets/speech/EMODB/3 - LMDB/train
I0919 17:28:21.083221 2487759808 net.cpp:96] Creating Layer data
I0919 17:28:21.083262 2487759808 net.cpp:413] data -> data
I0919 17:28:21.083304 2487759808 net.cpp:413] data -> label
I0919 17:28:21.090212 2487759808 data_layer.cpp:46] output data size: 16,1,36,36
I0919 17:28:21.090862 2487759808 net.cpp:134] Setting up data
I0919 17:28:21.090881 2487759808 net.cpp:142] Top shape: 16 1 36 36 (20736)
I0919 17:28:21.090924 2487759808 net.cpp:142] Top shape: 16 (16)
I0919 17:28:21.090951 2487759808 layer_factory.cpp:67] Creating layer conv1
I0919 17:28:21.091351 2487759808 net.cpp:96] Creating Layer conv1
I0919 17:28:21.091365 2487759808 net.cpp:444] conv1 <- data
I0919 17:28:21.091374 2487759808 net.cpp:413] conv1 -> conv1
I0919 17:28:21.097436 2487759808 net.cpp:134] Setting up conv1
I0919 17:28:21.097458 2487759808 net.cpp:142] Top shape: 16 64 34 34 (1183744)
I0919 17:28:21.097481 2487759808 layer_factory.cpp:67] Creating layer relu1
I0919 17:28:21.097493 2487759808 net.cpp:96] Creating Layer relu1
I0919 17:28:21.097498 2487759808 net.cpp:444] relu1 <- conv1
I0919 17:28:21.097506 2487759808 net.cpp:413] relu1 -> relu1
I0919 17:28:21.097514 2487759808 net.cpp:134] Setting up relu1
I0919 17:28:21.097519 2487759808 net.cpp:142] Top shape: 16 64 34 34 (1183744)
I0919 17:28:21.097527 2487759808 layer_factory.cpp:67] Creating layer conv2
I0919 17:28:21.097537 2487759808 net.cpp:96] Creating Layer conv2
I0919 17:28:21.097540 2487759808 net.cpp:444] conv2 <- relu1
I0919 17:28:21.097546 2487759808 net.cpp:413] conv2 -> conv2
I0919 17:28:21.099427 2487759808 net.cpp:134] Setting up conv2
I0919 17:28:21.099437 2487759808 net.cpp:142] Top shape: 16 128 32 32 (2097152)
I0919 17:28:21.099449 2487759808 layer_factory.cpp:67] Creating layer relu2
I0919 17:28:21.099462 2487759808 net.cpp:96] Creating Layer relu2
I0919 17:28:21.099467 2487759808 net.cpp:444] relu2 <- conv2
I0919 17:28:21.099473 2487759808 net.cpp:413] relu2 -> relu2
I0919 17:28:21.099479 2487759808 net.cpp:134] Setting up relu2
I0919 17:28:21.099483 2487759808 net.cpp:142] Top shape: 16 128 32 32 (2097152)
I0919 17:28:21.099491 2487759808 layer_factory.cpp:67] Creating layer pool1
I0919 17:28:21.099500 2487759808 net.cpp:96] Creating Layer pool1
I0919 17:28:21.099505 2487759808 net.cpp:444] pool1 <- relu2
I0919 17:28:21.099515 2487759808 net.cpp:413] pool1 -> pool1
I0919 17:28:21.100600 2487759808 net.cpp:134] Setting up pool1
I0919 17:28:21.100620 2487759808 net.cpp:142] Top shape: 16 128 16 16 (524288)
I0919 17:28:21.100634 2487759808 layer_factory.cpp:67] Creating layer conv3
I0919 17:28:21.100643 2487759808 net.cpp:96] Creating Layer conv3
I0919 17:28:21.100648 2487759808 net.cpp:444] conv3 <- pool1
I0919 17:28:21.100656 2487759808 net.cpp:413] conv3 -> conv3
I0919 17:28:21.106118 2487759808 net.cpp:134] Setting up conv3
I0919 17:28:21.106137 2487759808 net.cpp:142] Top shape: 16 256 14 14 (802816)
I0919 17:28:21.106160 2487759808 layer_factory.cpp:67] Creating layer relu3
I0919 17:28:21.106170 2487759808 net.cpp:96] Creating Layer relu3
I0919 17:28:21.106179 2487759808 net.cpp:444] relu3 <- conv3
I0919 17:28:21.106189 2487759808 net.cpp:413] relu3 -> relu3
I0919 17:28:21.106200 2487759808 net.cpp:134] Setting up relu3
I0919 17:28:21.106232 2487759808 net.cpp:142] Top shape: 16 256 14 14 (802816)
I0919 17:28:21.106245 2487759808 layer_factory.cpp:67] Creating layer conv4
I0919 17:28:21.106254 2487759808 net.cpp:96] Creating Layer conv4
I0919 17:28:21.106259 2487759808 net.cpp:444] conv4 <- relu3
I0919 17:28:21.106264 2487759808 net.cpp:413] conv4 -> conv4
I0919 17:28:21.134014 2487759808 net.cpp:134] Setting up conv4
I0919 17:28:21.134030 2487759808 net.cpp:142] Top shape: 16 512 12 12 (1179648)
I0919 17:28:21.134047 2487759808 layer_factory.cpp:67] Creating layer relu4
I0919 17:28:21.134053 2487759808 net.cpp:96] Creating Layer relu4
I0919 17:28:21.134058 2487759808 net.cpp:444] relu4 <- conv4
I0919 17:28:21.134064 2487759808 net.cpp:413] relu4 -> relu4
I0919 17:28:21.134073 2487759808 net.cpp:134] Setting up relu4
I0919 17:28:21.134076 2487759808 net.cpp:142] Top shape: 16 512 12 12 (1179648)
I0919 17:28:21.134083 2487759808 layer_factory.cpp:67] Creating layer pool2
I0919 17:28:21.134090 2487759808 net.cpp:96] Creating Layer pool2
I0919 17:28:21.134094 2487759808 net.cpp:444] pool2 <- relu4
I0919 17:28:21.134099 2487759808 net.cpp:413] pool2 -> pool2
I0919 17:28:21.134214 2487759808 net.cpp:134] Setting up pool2
I0919 17:28:21.134243 2487759808 net.cpp:142] Top shape: 16 512 6 6 (294912)
I0919 17:28:21.134256 2487759808 layer_factory.cpp:67] Creating layer drop1
I0919 17:28:21.134712 2487759808 net.cpp:96] Creating Layer drop1
I0919 17:28:21.134726 2487759808 net.cpp:444] drop1 <- pool2
I0919 17:28:21.134733 2487759808 net.cpp:413] drop1 -> drop1
I0919 17:28:21.134747 2487759808 net.cpp:134] Setting up drop1
I0919 17:28:21.134752 2487759808 net.cpp:142] Top shape: 16 512 6 6 (294912)
I0919 17:28:21.134760 2487759808 layer_factory.cpp:67] Creating layer ip1
I0919 17:28:21.134770 2487759808 net.cpp:96] Creating Layer ip1
I0919 17:28:21.134776 2487759808 net.cpp:444] ip1 <- drop1
I0919 17:28:21.134783 2487759808 net.cpp:413] ip1 -> ip1
I0919 17:28:21.136574 2487759808 net.cpp:134] Setting up ip1
I0919 17:28:21.136581 2487759808 net.cpp:142] Top shape: 16 6 (96)
I0919 17:28:21.136591 2487759808 layer_factory.cpp:67] Creating layer loss
I0919 17:28:21.136600 2487759808 net.cpp:96] Creating Layer loss
I0919 17:28:21.136605 2487759808 net.cpp:444] loss <- ip1
I0919 17:28:21.136610 2487759808 net.cpp:444] loss <- label
I0919 17:28:21.136613 2487759808 net.cpp:413] loss -> loss
I0919 17:28:21.136622 2487759808 layer_factory.cpp:67] Creating layer loss
…
I0919 17:28:21.137362 2487759808 solver.cpp:194] Creating test net (#0) specified by net file: ../models/speech_net/conv4/train_test.prototxt
I0919 17:28:21.137405 2487759808 net.cpp:322] The NetState phase (1) differed from the phase (0) specified by a rule in layer data
I0919 17:28:21.137428 2487759808 net.cpp:57] Initializing net from parameters: 
name: "SpeechNet"
state {
  phase: TEST
}
layer {
  name: "data"
  type: "Data"
  top: "data"
  top: "label"
  include {
    phase: TEST
  }
  transform_param {
    crop_size: 36
  }
  data_param {
    source: "../datasets/speech/EMODB/3 - LMDB/test"
    batch_size: 1
    backend: LMDB
  }
}
layer {
  name: "conv1"
  type: "Convolution"
  bottom: "data"
  top: "conv1"
  param {
    lr_mult: 1
  }
  param {
    lr_mult: 2
  }
  convolution_param {
    num_output: 64
    kernel_size: 3
    stride: 1
    weight_filler {
      type: "xavier"
    }
    bias_filler {
      type: "constant"
    }
  }
}
layer {
  name: "relu1"
  type: "ReLU"
  bottom: "conv1"
  top: "relu1"
}
layer {
  name: "conv2"
  type: "Convolution"
  bottom: "relu1"
  top: "conv2"
  param {
    lr_mult: 1
  }
  param {
    lr_mult: 2
  }
  convolution_param {
    num_output: 128
    kernel_size: 3
    stride: 1
    weight_filler {
      type: "xavier"
    }
    bias_filler {
      type: "constant"
    }
  }
}
layer {
  name: "relu2"
  type: "ReLU"
  bottom: "conv2"
  top: "relu2"
}
layer {
  name: "pool1"
  type: "Pooling"
  bottom: "relu2"
  top: "pool1"
  pooling_param {
    pool: MAX
    kernel_size: 2
    stride: 2
  }
}
layer {
  name: "conv3"
  type: "Convolution"
  bottom: "pool1"
  top: "conv3"
  param {
    lr_mult: 1
  }
  param {
    lr_mult: 2
  }
  convolution_param {
    num_output: 256
    kernel_size: 3
    stride: 1
    weight_filler {
      type: "xavier"
    }
    bias_filler {
      type: "constant"
    }
  }
}
layer {
  name: "relu3"
  type: "ReLU"
  bottom: "conv3"
  top: "relu3"
}
layer {
  name: "conv4"
  type: "Convolution"
  bottom: "relu3"
  top: "conv4"
  param {
    lr_mult: 1
  }
  param {
    lr_mult: 2
  }
  convolution_param {
    num_output: 512
    kernel_size: 3
    stride: 1
    weight_filler {
      type: "xavier"
    }
    bias_filler {
      type: "constant"
    }
  }
}
layer {
  name: "relu4"
  type: "ReLU"
  bottom: "conv4"
  top: "relu4"
}
layer {
  name: "pool2"
  type: "Pooling"
  bottom: "relu4"
  top: "pool2"
  pooling_param {
    pool: MAX
    kernel_size: 2
    stride: 2
  }
}
layer {
  name: "drop1"
  type: "Dropout"
  bottom: "pool2"
  top: "drop1"
  dropout_param {
    dropout_ratio: 0.2
  }
}
layer {
  name: "ip1"
  type: "InnerProduct"
  bottom: "drop1"
  top: "ip1"
  param {
    lr_mult: 1
  }
  param {
    lr_mult: 2
  }
  inner_product_param {
    num_output: 6
    weight_filler {
      type: "xavier"
    }
    bias_filler {
      type: "constant"
    }
  }
}
layer {
  name: "accuracy"
  type: "Accuracy"
  bottom: "ip1"
  bottom: "label"
  top: "accuracy"
  include {
    phase: TEST
  }
}
layer {
  name: "loss"
  type: "SoftmaxWithLoss"
  bottom: "ip1"
  bottom: "label"
  top: "loss"
}
I0919 17:28:21.137682 2487759808 layer_factory.cpp:67] Creating layer data
I0919 17:28:21.138198 2487759808 db_lmdb.cpp:40] Opened lmdb ../datasets/speech/EMODB/3 - LMDB/test
I0919 17:28:21.139868 2487759808 net.cpp:96] Creating Layer data
I0919 17:28:21.139904 2487759808 net.cpp:413] data -> data
I0919 17:28:21.139914 2487759808 net.cpp:413] data -> label
I0919 17:28:21.139961 2487759808 data_layer.cpp:46] output data size: 1,1,36,36
I0919 17:28:21.140022 2487759808 net.cpp:134] Setting up data
I0919 17:28:21.140034 2487759808 net.cpp:142] Top shape: 1 1 36 36 (1296)
I0919 17:28:21.140046 2487759808 net.cpp:142] Top shape: 1 (1)
I0919 17:28:21.140059 2487759808 layer_factory.cpp:67] Creating layer label_data_1_split
I0919 17:28:21.140072 2487759808 net.cpp:96] Creating Layer label_data_1_split
I0919 17:28:21.140081 2487759808 net.cpp:444] label_data_1_split <- label
I0919 17:28:21.140116 2487759808 net.cpp:413] label_data_1_split -> label_data_1_split_0
I0919 17:28:21.140133 2487759808 net.cpp:413] label_data_1_split -> label_data_1_split_1
I0919 17:28:21.140151 2487759808 net.cpp:134] Setting up label_data_1_split
I0919 17:28:21.140159 2487759808 net.cpp:142] Top shape: 1 (1)
I0919 17:28:21.140171 2487759808 net.cpp:142] Top shape: 1 (1)
I0919 17:28:21.140184 2487759808 layer_factory.cpp:67] Creating layer conv1
I0919 17:28:21.140199 2487759808 net.cpp:96] Creating Layer conv1
I0919 17:28:21.140208 2487759808 net.cpp:444] conv1 <- data
I0919 17:28:21.140218 2487759808 net.cpp:413] conv1 -> conv1
I0919 17:28:21.140784 2487759808 net.cpp:134] Setting up conv1
I0919 17:28:21.140794 2487759808 net.cpp:142] Top shape: 1 64 34 34 (73984)
I0919 17:28:21.140813 2487759808 layer_factory.cpp:67] Creating layer relu1
I0919 17:28:21.140825 2487759808 net.cpp:96] Creating Layer relu1
I0919 17:28:21.140832 2487759808 net.cpp:444] relu1 <- conv1
I0919 17:28:21.140841 2487759808 net.cpp:413] relu1 -> relu1
I0919 17:28:21.140880 2487759808 net.cpp:134] Setting up relu1
I0919 17:28:21.140905 2487759808 net.cpp:142] Top shape: 1 64 34 34 (73984)
I0919 17:28:21.140923 2487759808 layer_factory.cpp:67] Creating layer conv2
I0919 17:28:21.140935 2487759808 net.cpp:96] Creating Layer conv2
I0919 17:28:21.140944 2487759808 net.cpp:444] conv2 <- relu1
I0919 17:28:21.140982 2487759808 net.cpp:413] conv2 -> conv2
I0919 17:28:21.142843 2487759808 net.cpp:134] Setting up conv2
I0919 17:28:21.142855 2487759808 net.cpp:142] Top shape: 1 128 32 32 (131072)
I0919 17:28:21.142868 2487759808 layer_factory.cpp:67] Creating layer relu2
I0919 17:28:21.142874 2487759808 net.cpp:96] Creating Layer relu2
I0919 17:28:21.142879 2487759808 net.cpp:444] relu2 <- conv2
I0919 17:28:21.142890 2487759808 net.cpp:413] relu2 -> relu2
I0919 17:28:21.142904 2487759808 net.cpp:134] Setting up relu2
I0919 17:28:21.142910 2487759808 net.cpp:142] Top shape: 1 128 32 32 (131072)
I0919 17:28:21.142923 2487759808 layer_factory.cpp:67] Creating layer pool1
I0919 17:28:21.142935 2487759808 net.cpp:96] Creating Layer pool1
I0919 17:28:21.142940 2487759808 net.cpp:444] pool1 <- relu2
I0919 17:28:21.142946 2487759808 net.cpp:413] pool1 -> pool1
I0919 17:28:21.143072 2487759808 net.cpp:134] Setting up pool1
I0919 17:28:21.143081 2487759808 net.cpp:142] Top shape: 1 128 16 16 (32768)
I0919 17:28:21.143095 2487759808 layer_factory.cpp:67] Creating layer conv3
I0919 17:28:21.143113 2487759808 net.cpp:96] Creating Layer conv3
I0919 17:28:21.143121 2487759808 net.cpp:444] conv3 <- pool1
I0919 17:28:21.143139 2487759808 net.cpp:413] conv3 -> conv3
I0919 17:28:21.148571 2487759808 net.cpp:134] Setting up conv3
I0919 17:28:21.148587 2487759808 net.cpp:142] Top shape: 1 256 14 14 (50176)
I0919 17:28:21.148602 2487759808 layer_factory.cpp:67] Creating layer relu3
I0919 17:28:21.148609 2487759808 net.cpp:96] Creating Layer relu3
I0919 17:28:21.148614 2487759808 net.cpp:444] relu3 <- conv3
I0919 17:28:21.148619 2487759808 net.cpp:413] relu3 -> relu3
I0919 17:28:21.148627 2487759808 net.cpp:134] Setting up relu3
I0919 17:28:21.148630 2487759808 net.cpp:142] Top shape: 1 256 14 14 (50176)
I0919 17:28:21.148638 2487759808 layer_factory.cpp:67] Creating layer conv4
I0919 17:28:21.148643 2487759808 net.cpp:96] Creating Layer conv4
I0919 17:28:21.148648 2487759808 net.cpp:444] conv4 <- relu3
I0919 17:28:21.148653 2487759808 net.cpp:413] conv4 -> conv4
I0919 17:28:21.171785 2487759808 net.cpp:134] Setting up conv4
I0919 17:28:21.171807 2487759808 net.cpp:142] Top shape: 1 512 12 12 (73728)
I0919 17:28:21.171828 2487759808 layer_factory.cpp:67] Creating layer relu4
I0919 17:28:21.171838 2487759808 net.cpp:96] Creating Layer relu4
I0919 17:28:21.171846 2487759808 net.cpp:444] relu4 <- conv4
I0919 17:28:21.171857 2487759808 net.cpp:413] relu4 -> relu4
I0919 17:28:21.171871 2487759808 net.cpp:134] Setting up relu4
I0919 17:28:21.171878 2487759808 net.cpp:142] Top shape: 1 512 12 12 (73728)
I0919 17:28:21.171893 2487759808 layer_factory.cpp:67] Creating layer pool2
I0919 17:28:21.171905 2487759808 net.cpp:96] Creating Layer pool2
I0919 17:28:21.171913 2487759808 net.cpp:444] pool2 <- relu4
I0919 17:28:21.171924 2487759808 net.cpp:413] pool2 -> pool2
I0919 17:28:21.172055 2487759808 net.cpp:134] Setting up pool2
I0919 17:28:21.172061 2487759808 net.cpp:142] Top shape: 1 512 6 6 (18432)
I0919 17:28:21.172075 2487759808 layer_factory.cpp:67] Creating layer drop1
I0919 17:28:21.172086 2487759808 net.cpp:96] Creating Layer drop1
I0919 17:28:21.172094 2487759808 net.cpp:444] drop1 <- pool2
I0919 17:28:21.172104 2487759808 net.cpp:413] drop1 -> drop1
I0919 17:28:21.172118 2487759808 net.cpp:134] Setting up drop1
I0919 17:28:21.172124 2487759808 net.cpp:142] Top shape: 1 512 6 6 (18432)
I0919 17:28:21.172138 2487759808 layer_factory.cpp:67] Creating layer ip1
I0919 17:28:21.172158 2487759808 net.cpp:96] Creating Layer ip1
I0919 17:28:21.172164 2487759808 net.cpp:444] ip1 <- drop1
I0919 17:28:21.172174 2487759808 net.cpp:413] ip1 -> ip1
I0919 17:28:21.174077 2487759808 net.cpp:134] Setting up ip1
I0919 17:28:21.174088 2487759808 net.cpp:142] Top shape: 1 6 (6)
I0919 17:28:21.174108 2487759808 layer_factory.cpp:67] Creating layer ip1_ip1_0_split
I0919 17:28:21.174118 2487759808 net.cpp:96] Creating Layer ip1_ip1_0_split
I0919 17:28:21.174126 2487759808 net.cpp:444] ip1_ip1_0_split <- ip1
I0919 17:28:21.174137 2487759808 net.cpp:413] ip1_ip1_0_split -> ip1_ip1_0_split_0
I0919 17:28:21.174181 2487759808 net.cpp:413] ip1_ip1_0_split -> ip1_ip1_0_split_1
I0919 17:28:21.174196 2487759808 net.cpp:134] Setting up ip1_ip1_0_split
I0919 17:28:21.174206 2487759808 net.cpp:142] Top shape: 1 6 (6)
I0919 17:28:21.174214 2487759808 net.cpp:142] Top shape: 1 6 (6)
I0919 17:28:21.174227 2487759808 layer_factory.cpp:67] Creating layer accuracy
I0919 17:28:21.174238 2487759808 net.cpp:96] Creating Layer accuracy
I0919 17:28:21.174247 2487759808 net.cpp:444] accuracy <- ip1_ip1_0_split_0
I0919 17:28:21.174257 2487759808 net.cpp:444] accuracy <- label_data_1_split_0
I0919 17:28:21.174266 2487759808 net.cpp:413] accuracy -> accuracy
I0919 17:28:21.174288 2487759808 net.cpp:134] Setting up accuracy
…
